nn_16Sec_2654833-8356.pt (torch_old, 9566 bytes, 9 tensors)

lstm.weight_ih_l0 f4 [48, 1]
00000000: 2ff7 8abd 7ad9 e73c 4ffc 8f3e e08f babe
00000010: d466 8cbb 55c9 943e ef90 9abe adf6 59be
00000020: 4a5c a0bd 348f 02be 4ec9 e53c b845 fd3e
00000030: 0d44 bf3e 4f8f a23e f32e 203c 9956 bb3d
00000040: 3d58 783e beec 2e3f 863b 1fbe 775b c6be
00000050: 3db9 9e3e 4f2e c0be b574 88bd de6c e23e
00000060: bcbd 933e 6408 cebe 70c5 f0bd 6b4b 633e
00000070: ccc6 a1bc 97f7 e43e c832 793e ca39 a0be
00000080: 3dca 22be 720b 143d f83f 913e 4075 abbe
00000090: a85e 13be 6175 e1bd a501 a63e 3947 ed3d
000000a0: 0980 d33e 55ee 05be eec1 2cbe 9683 5abe
000000b0: 7bb9 e23c 7830 babe fc23 d33e ed9f dd3d
-0.06785428 0.028301943 0.28122184 -0.36437893 -0.004284719 0.29059854 -0.301887 -0.21285506
-0.07830103 -0.1274994 0.028050091 0.49467254 0.37356606 0.3174996 0.009776819 0.091473766
0.2425241 0.6832999 -0.1555005 -0.38741657 0.310007 -0.3753533 -0.06662885 0.44223684
0.28855693 -0.40240777 -0.11756408 0.22196738 -0.019748114 0.44720146 0.24335778 -0.3129409
-0.1589746 0.036143728 0.28369117 -0.33487892 -0.14391577 -0.110087164 0.3242313 0.1158585
0.4130862 -0.13079198 -0.16870853 -0.21339259 0.027676335 -0.36365104 0.4123839 0.10821519

lstm.weight_hh_l0 f4 [48, 12]
00000000: e430 983d 98da c33e 50a9 bcbd 65fc 16bd
00000010: bd13 143e 7154 e83e f439 9dbe 224d 7b3e
00000020: 03de 003f e751 17bd 2899 1fbe ec38 4f3e
00000030: 6e95 523e 5826 853d 7dcc cebe 61a3 d5be
00000040: 969a 473e c5d1 5fbe ac58 52be 7682 10be
00000050: 33cc babc aa2f 5cbe abb5 e0bd bd19 673e
00000060: c189 92be c5e4 56bc 90f6 04be 58d1 5c3e
00000070: 270d b93e f331 e03d b821 05be 58d9 54bd
00000080: 4b5c 303e c0cf 81be eb09 f1bd b980 22bd
00000090: 7d3d 813d c637 fd3e 928a cfbe ef7a 1cbe
000000a0: 11ec b03e 16a1 833e fb02 6dbe 6edd e03e
000000b0: 2d8a 173e bf15 dbbe 3397 453d 27ac 983e
000000c0: f319 ac3e 3816 1ebe e2db 4abe 4e6c 973e
000000d0: 60ed 54be 533e 5fbd cfc7 14bf a96e 46be
000000e0: a93f 413e 7097 25be 2109 3dbe 9e2b 593e
000000f0: 7a9e a03e e3fe d13e edec d4be b4db 8e3d
00000100: 2547 4e3e 46bc e63e 53fe 8dbe 9fdb 7f3e
00000110: 7944 b23e 2b3d a9be e933 563d 659d 203f
00000120: a7d1 04bf d33f 893e e109 7fbe f236 6dbe
00000130: 30f2 b4be e356 09bf 8c94 d5be 32f0 5fbc
00000140: 2c0c edbd cd18 a03d ce4d 27be 4f67 a5bc
00000150: 3ca9 6a3d 9414 b53a 37c4 cbbe 5899 bdbd
00000160: 81d6 e43e 7647 f93c c769 2d3c 1a4b 8e3e
00000170: 98a9 ad3e 73a5 a5be 4d28 80be 1a3c d7bd
00000180: 4a6e b1bd 871e c13d 2f7e 43be 7258 61bd
00000190: 7985 c7bd 475d 48be 75d4 9bbe dfdd 203e
000001a0: 0a70 653e d5ab 29be 749e 4f3e 3308 02be
000001b0: 6d3c 1d3e 0c6f 803e 54e0 433d ad77 28be
000001c0: 9dc2 c3bd b762 fdbb d897 943d 0756 b4bd
000001d0: 3e25 933d bfd7 99bb 7f13 9ebe 34f3 d9bd
000001e0: 5a01 993e e485 b43e a200 103d 84e9 a93e
000001f0: 1ed4 05be 03ff ba3e 6657 3bbe a524 c83e
00000200: 7ddd ab3e 6001 06be 3302 483e 3410 673e
00000210: af8c 50be d63e 8f3e 603e 4c3e d70c 42be
00000220: c26d 343d bc04 7fbc dbb2 9ebe bfe5 6cbd
00000230: c201 823e 443b 4bbe 09a2 1dbe f770 33be
00000240: bc1d 973e adae c43d cfce a3be 8b72 9e3e
00000250: c4f2 f03e 8125 523e e975 4a3d 1452 bc3d
00000260: a3de 7b3e 63c0 213c a10c e13e f433 9e3e
00000270: 0c4a 8abe 1d16 c83e 6e88 9ebd a4d7 a5be
00000280: 9d15 333e 7b49 c9be a10c debd baea f93e
00000290: 09fb b13e f2ed f9be e95f 63bd a2f6 a9bc
000002a0: fd20 b83d b4ff 62bd 192d 32be ee4d 353e
000002b0: 6e68 9b3d b246 343d f2fb 0ebf afd4 213e
000002c0: 23e9 ce3e 3ff4 c6bd 49e2 92be c27b 9d3e
000002d0: af94 883e 3911 673e db68 a63d ef4d f33d
000002e0: 3f9a bb3e 3f91 8dbe 335a 7f3d 9ed4 fcbb
000002f0: 10cb 04bd 4f24 693d adf8 7cbe f389 e63d
00000300: cee9 0c3e ad03 06be 1eb7 5fbe 0fba 5bba
00000310: 23f0 743e 412a d73e 72d2 a0be 3c88 323e
00000320: b90d c43c fbef 8dbe 43d4 babd 3c42 803e
00000330: 4034 fa3e 35d4 3b3f 16fe 333d 2a11 163f
00000340: bdc9 b83e 09a8 ef3d e2a4 503e 77dd 053e
00000350: 10a5 463e 8bb8 eabd ea84 2ebd 6182 0c3e
00000360: df2d bbbd a07b a53e 3051 c03d f1d4 f4bd
00000370: 1903 503e bb82 25bf 4b34 8fbe dc44 823e
00000380: f588 37be 485e d4bd 5d9c b0be aa02 8fbb
00000390: 700f 0b3e 95f9 2a3e 3c58 dfbd 7606 71be
000003a0: b2f9 fabd 2b28 963e f0d9 7ebe 3844 fcbc
000003b0: 06fc f9bd 9d87 b8be 7ee6 1f3e 868f 8ebd
000003c0: 2d0e 473e dca7 833e de8e 4fbe ac51 8abe
000003d0: ed87 c03e b0b9 943e b6a4 663c e54c 31be
000003e0: 630c 33be 85e1 84be be7f 18be 39b5 303e
000003f0: 733c 6d3d 6090 c03d 2f1f 3ebe 4a44 82be
0.074312 0.3825271 -0.09211981 -0.036861796 0.14460655 0.45376924 -0.30708277 0.24541143
0.50338763 -0.036943343 -0.15585768 0.20236558 0.20564815 0.06501454 -0.40390387 -0.4172621
0.19492564 -0.21857364 -0.20541638 -0.14112267 -0.022802448 -0.21502557 -0.109721504 0.22568412
-0.28620723 -0.013116066 -0.12984681 0.21564233 0.36142847 0.10947027 -0.13001144 -0.051965088
0.17222707 -0.25353813 -0.1176947 -0.03967354 0.06310556 0.49456614 -0.40535408 -0.1528127
0.34555104 0.25708836 -0.23145668 0.43918937 0.14798804 -0.42790028 0.048239898 0.29818842
0.33613548 -0.15438163 -0.19810441 0.29574817 -0.20793676 -0.054502796 -0.58117384 -0.19378151
0.1887194 -0.1617105 -0.18460514 0.21208045 0.31370908 0.41014776 -0.4158701 0.06975499
0.20144327 0.45065516 -0.27733096 0.24986123 0.34817865 -0.3305448 0.0522956 0.62740165
-0.51882404 0.26806507 -0.24906112 -0.23165491 -0.35341024 -0.53648204 -0.41714895 -0.013668107
-0.11574587 0.078172304 -0.16338274 -0.020190863 0.0572903 0.0013815337 -0.39798138 -0.092577636
0.44694903 0.030429583 0.010584301 0.27791673 0.33918452 -0.3235279 -0.25030747 -0.1050951
-0.08663614 0.09429651 -0.19091104 -0.05501599 -0.09742255 -0.19566832 -0.3043553 0.15709637
0.22406021 -0.16569455 0.20275289 -0.1269844 0.15355082 0.25084722 0.047821358 -0.16451903
-0.09558604 -0.007732715 0.072555244 -0.08805471 0.07184838 -0.0046949084 -0.3087425 -0.106420904
0.29883844 0.352584 0.035156853 0.3318597 -0.13069198 0.36522684 -0.18295059 0.39090458
0.3356742 -0.13086462 0.19532089 0.22564775 -0.20366167 0.27977628 0.19945669 -0.1895021
0.044049986 -0.015565094 -0.3099583 -0.05783629 0.25391966 -0.19846827 -0.15393843 -0.17523561
0.29514873 0.09603629 -0.3199372 0.30946764 0.47060215 0.20522119 0.049428854 0.09195343
0.24596648 0.009872529 0.43954948 0.30899012 -0.27009618 0.3907937 -0.07740866 -0.32391083
0.17488714 -0.39313874 -0.108422525 0.48811895 0.34761837 -0.4881435 -0.05551139 -0.020747487
0.08990667 -0.05541964 -0.17400016 0.17705509 0.07588278 0.044012733 -0.5585319 0.15803789
0.40412244 -0.09714555 -0.28688267 0.30758482 0.26675937 0.22565164 0.08125468 0.11880099
0.36641118 -0.27649876 0.06234188 -0.0077157756 -0.032420218 0.056919392 -0.24704237 0.112567805
0.13761064 -0.1308734 -0.21847197 -0.0008381912 0.2391973 0.42024425 -0.31410557 0.17434782
0.023932325 -0.27722153 -0.09122517 0.25050533 0.4886799 0.7337068 0.043943487 0.5861994
0.36091414 0.11701972 0.20375398 0.13072763 0.19398904 -0.1146098 -0.042607225 0.1372161
-0.091396086 0.3232088 0.09390485 -0.11954678 0.20313682 -0.64652604 -0.27969584 0.2544316
-0.17923339 -0.10369545 -0.34494296 -0.0043643313 0.13580108 0.1669677 -0.10905501 -0.23537621
-0.12254657 0.2932752 -0.24887824 -0.030794248 -0.12206273 -0.36040965 0.1561527 -0.06960969
0.19439001 0.25714004 -0.20269343 -0.27015436 0.37603703 0.29047918 0.014077356 -0.17314489
-0.17485194 -0.25953308 -0.1489248 0.17256631 0.057918977 0.09402537 -0.18566583 -0.25442725

lstm.bias_ih_l0 f4 [48]
00000000: 3abc 373e 353d 1e3e 4546 233e beec 90ba
00000010: 47a8 843e dc1d ab3d 9642 34be 0119 5e3e
00000020: 45a3 743c 2104 db3d b600 103c 10e0 693d
00000030: fb4a b03e ec0d d9bd b00f e8bd f472 c83e
00000040: 777a 7e3e fc27 b8bc e34a 563e e259 1b3e
00000050: 8ddb b33d 539f a93e a848 4c3e 32f3 aa3b
00000060: 887a 973d 84f3 963d 7c45 1abe 964e 73bc
00000070: 8092 8c3e c7b2 3e3e f2d9 b0bd a7d7 843e
00000080: e79f 9f3e 9df3 9ebe e8a3 233e 38a7 3c3e
00000090: 0ee7 d6bd 80bd c23e 1f22 943e e483 6c3c
000000a0: ac31 0b3e 05a0 a33e 7647 7abd ba0f 543c
000000b0: c995 b63e 3c15 d43d abe0 3d3e 8fea 92bd
0.17942896 0.15453036 0.15944774 -0.0011056883 0.25909635 0.083553046 -0.17603526 0.21689226
0.014931505 0.10694147 0.008789232 0.05709845 0.34432206 -0.105983585 -0.11331117 0.39150202
0.24851404 -0.022480004 0.20927005 0.15171006 0.0878211 0.33129367 0.19949591 0.0052169794
0.07396418 0.07370666 -0.15065569 -0.014850279 0.2745552 0.18622886 -0.0863532 0.2594578
0.31176683 -0.31045237 0.15980494 0.18423164 -0.10493289 0.38035202 0.28932282 0.014435742
0.13593167 0.31958023 -0.061103307 0.012943203 0.35661152 0.10355613 0.18542735 -0.07173645

lstm.bias_hh_l0 f4 [48]
00000000: 2fb7 823e 5ac6 11be 9535 893e 41b3 543e
00000010: 71ed f9bd 15d5 8e3e 6b9c 813c bf96 b0bd
00000020: b20d 33be c075 be3e 217b 963e 2d82 15be
00000030: 7a38 2fbc 26d6 9dbd 0ee9 7c3d 145b 50bd
00000040: 9ca7 12bc d9a1 853d 22af 8d3d 3bd8 2c3d
00000050: 6922 9e3e 4361 b73d b443 17bd 9a3f 6e3e
00000060: 68a4 9ebe 2b56 3f3e 6496 5cbe bd3a 1dbe
00000070: c206 6c3e 1928 92bd 807c cfbd 7f16 9f3e
00000080: e4fe cb3e 9407 28be 1b16 87bd 75e4 25be
00000090: 9f31 073e b704 d73e 1f6a 603e 3934 b0bd
000000a0: b9fb 18be 0ab0 903e d05a c2bd eea6 4d3e
000000b0: 2243 c93e c69a 38be fbe9 b9bc 5f81 dc3d
0.25530383 -0.14235821 0.26798692 0.20771505 -0.122034915 0.27896944 0.015821656 -0.086225025
-0.17485693 0.3719921 0.29390815 -0.1460044 -0.010694617 -0.07706861 0.061745696 -0.05086811
-0.008951094 0.065250106 0.069181696 0.0421984 0.30885628 0.08954098 -0.0369298 0.2326645
-0.30984807 0.18685214 -0.21541744 -0.15354438 0.23049453 -0.07136554 -0.10131168 0.3107185
0.39842904 -0.16409141 -0.06596013 -0.1620043 0.13202523 0.41995785 0.21915482 -0.08603711
-0.14939775 0.28259307 -0.09489977 0.2008321 0.3930903 -0.18027791 -0.022694578 0.10766863

lstm.weight_ih_l1 f4 [48, 12]
00000000: 7f75 fb3e 0d9e b23b 702e 1d3e ddcd 653e
00000010: 526b 023e 507a 273e dbd0 91be 6527 50be
00000020: 5441 98be 2309 a13e 2b5b 86be 5afc 0c3e
00000030: 2c67 1f3e 99a0 4e3e 3d51 9e3c 2d25 fbbc
00000040: ae93 94bd a65f babc 0e37 93bd 6005 25be
00000050: 7d0f 72be e25a 793e eb18 6dbe b06c 7cbd
00000060: 034b dfbd 56b2 073e 7628 24be 5cde 17be
00000070: a736 d5bc f65d c33d 0a36 df3d f077 a43e
00000080: 1337 42bd f0b1 fabd b7b3 06be d241 893d
00000090: 62b5 6cbe 6fde 503e 8c71 123e 8ccd 51be
000000a0: 0aa0 553d 2c97 4bbe ebcc 08be 18af 28bd
000000b0: 1a3a 7dbc d875 babe cf2c e2be 770c 9e3d
000000c0: 1f85 313e f6d0 63be 526f 64be 8736 633e
000000d0: 9abb 2f3e f9e9 903e 8c7b a73d 03d8 d03e
000000e0: 23b0 b63e 4b96 bcbe 61e1 273c c439 0bbe
000000f0: d445 9c3c 506e 473e fd21 dd3d 3959 1b3e
00000100: 7eb4 c03d 9aad 7d3e 723e 103e ceb5 0e3e
00000110: bc2c b23e dbbd c93d 364e 82be 2dc3 903e
00000120: 9c57 383e aabd b8be 6b5f bebd 2ae6 943e
00000130: babb 153e 04ae a93e 5d45 eebd 247e a6be
00000140: 55b0 2ebe a34e 323e 6b4b f1bd 1459 48be
00000150: 3372 b6bd 6407 edbc 33d2 6fbe 26dc a4bd
00000160: 3f53 b2bd 94de 013e d0fa 823e 3177 fabd
00000170: d33b acbd 78da b5be c6d7 3abe ca26 27bd
00000180: c86b a53d df10 903d 795e 2a3d 96e6 07bd
00000190: a8b3 203d d319 e93d b81d 9dbb f28c 8e3c
000001a0: 4925 c63e e93c a4bd ed1d f03d 74b7 5f3e
000001b0: 2f81 47bd 1e79 33be 2d78 563e 6c66 0b3e
000001c0: a7f0 61bc 83e0 af3e 9518 4d3e d23c e03d
000001d0: 4152 593e 912a 463e fbce 6dbd 6abb 06be
000001e0: 961c dc3d 1b75 5abe c54a 5f3e 78e9 4b3d
000001f0: 0f09 ed3d b054 fcbc d61d ef3d 14d2 b7be
00000200: f103 b0be 9c05 f8bd a300 bebd e8a5 eeba
00000210: f2d3 d23e d7a6 07be 34be 3ebe 70b9 d53e
00000220: b41a 843e 3623 dd3e 9f2a 07bd a070 1e3e
00000230: cfec e73e 338a 97be 536b fa3e 94f2 323e
00000240: 6fad 9a3e 1382 fb3d a3a5 45be 4d1d d6bd
00000250: 6e98 c93e 61de 093e 22d7 303e db41 613e
00000260: 0b97 b4bd a908 80be c949 9e3e a5e3 303e
00000270: 4458 433e 7655 9cbe 63a8 c4be 8510 d0bd
00000280: 7182 f03e cbfd 013f d89d 0ebe 3397 b23d
00000290: 9c46 da3d ae80 483e a961 293e bb81 9b3e
000002a0: 9488 8f3e 4834 71be 4ea1 7a3d 0b90 213e
000002b0: 3841 983c 8f18 ae3c 5b2b cd3d 80e1 1a3e
000002c0: 09e3 c13e 1861 413e 90d8 2ebe 819e 023e
000002d0: 84f7 f0bd 2c88 df3d 4cd8 bbbe d5f3 07be
000002e0: 7a88 e4bd 0f8b 4e3d c7d6 01be 2eb1 aa3d
000002f0: 664b 3b3e 705a efbe da24 05bd db23 173e
00000300: 7ab9 723e d707 99bd 92b1 02bd b05f f43d
00000310: b166 a7bc 0df3 b3bd 60f2 e83e d42b a73a
00000320: c4dc 863d d92c 31be e876 ad3d da15 773e
00000330: 497f 863e 912a 81be a485 93be 1b77 ed3d
00000340: 2d05 aa3e 6841 783e 42ac 38be cccd b43e
00000350: 6d62 943e b848 583e bb52 a53e 3f19 8d3e
00000360: d12c 723d 7d5d 173e 5f60 7fbe 9bcb f5bc
00000370: 66ad 0bbe 3769 56be 7283 963d e83b b73d
00000380: a0f6 cabd e7b2 a9bd 5233 19be f936 c8be
00000390: bc12 3abc abd9 b73b bc04 7bbe 8b33 58be
000003a0: 41ba 7e3d 458c 3d3d 628e 89be 6768 383e
000003b0: 83a3 443e 7daa 39be 7651 b53c 577c bb3e
000003c0: aa71 f03e e4ce 39be daa9 64be 11f5 9a3e
000003d0: 1603 b8bd 95cc 123e 782c 993c 091d 253c
000003e0: 57f5 8b3e 5ef1 b4bd d8d7 ddbd 8564 2abe
000003f0: 7d23 983e 2aaf cebd 964d 0e3d 983e 00be
0.4911308 0.00545097 0.15349746 0.22441812 0.12736252 0.16355252 -0.28479657 -0.20327528
-0.2973734 0.31452283 -0.2624143 0.1376814 0.155667 0.2017845 0.019325847 -0.030657375
-0.0725473 -0.022750687 -0.07188235 -0.16115332 -0.23638721 0.24351075 -0.23154037 -0.06162709
-0.10902979 0.13251624 -0.1603106 -0.14830917 -0.026027037 0.09539406 0.10898979 0.32122755
-0.047415804 -0.1224097 -0.13154493 0.06702007 -0.23116067 0.20397352 0.14301127 -0.20488566
0.05215458 -0.19881886 -0.1335942 -0.041182607 -0.015455747 -0.36418033 -0.4417481 0.07717221
0.17335938 -0.22247681 -0.2230809 0.2218877 0.17161408 0.28303507 0.081778616 0.40789804
0.35681257 -0.36833414 0.010246606 -0.13596255 0.019076265 0.19475675 0.107974984 0.15170754
0.09409426 0.24773255 0.14086321 0.1393654 0.34799755 0.09850665 -0.25450295 0.28273907
0.1800217 -0.36082202 -0.09295543 0.2908185 0.14622393 0.33140576 -0.11634324 -0.32518113
-0.17059453 0.1741281 -0.11781963 -0.1956523 -0.089085005 -0.028934188 -0.23420028 -0.080498025
-0.08707284 0.12682563 0.2558198 -0.12229765 -0.08409848 -0.3551824 -0.18246374 -0.040808477
0.08077198 0.07034468 0.041594002 -0.03317889 0.039233834 0.11381879 -0.0047948025 0.017401192
0.3870032 -0.0801943 0.11724458 0.21847326 -0.048707183 -0.17526671 0.20944281 0.1361329
-0.013790286 0.34350976 0.20028909 0.109491006 0.21222784 0.19352175 -0.05805872 -0.1315743
0.1074764 -0.21333735 0.21805866 0.0497832 0.115739934 -0.0308021 0.11675613 -0.35902464
-0.34378007 -0.12110445 -0.09277465 -0.0018207403 0.41177326 -0.13247238 -0.18627244 0.4174304
0.25801623 0.43190926 -0.03299963 0.1547265 0.45297858 -0.29597625 0.48910007 0.17475349
0.30210444 0.12280669 -0.19301467 -0.104548074 0.39374107 0.13463737 0.17269567 0.21997778
-0.08817872 -0.25006607 0.3091567 0.1727434 0.1907664 -0.30533952 -0.3840972 -0.10159401
0.4697452 0.5077788 -0.139274 0.08720245 0.10657999 0.19580337 0.1654116 0.30372414
0.28033888 -0.235551 0.06118899 0.15777604 0.018585786 0.021251945 0.10018035 0.15125084
0.37868527 0.18884695 -0.170748 0.12755777 -0.1176596 0.109146446 -0.3668846 -0.13276608
-0.11158843 0.050425585 -0.12679587 0.083345756 0.18290481 -0.46748686 -0.032505848 0.14759772
0.23703566 -0.074721985 -0.031907625 0.119323134 -0.02043471 -0.08786593 0.45497417 0.0012754151
0.065850765 -0.17302264 0.08469945 0.2412943 0.26268986 -0.25227788 -0.28812897 0.11594983
0.33207074 0.242437 -0.18034461 0.3531326 0.28981343 0.2112149 0.3228968 0.27558324
0.05912477 0.14781757 -0.24939106 -0.030004313 -0.13640365 -0.20938574 0.0734929 0.08946973
-0.09910321 -0.08286076 -0.14960983 -0.3910444 -0.011357006 0.005610665 -0.24513525 -0.21113412
0.062189344 0.04627635 -0.26866442 0.18008576 0.19203 -0.18131442 0.02213357 0.366183
0.4696172 -0.18145329 -0.22330418 0.30265096 -0.089849636 0.14335854 0.018697962 0.010077723
0.27335617 -0.088351 -0.108321846 -0.16639908 0.29714575 -0.10092004 0.03474196 -0.12523878

lstm.weight_hh_l1 f4 [48, 12]
00000000: 1565 4ebe f810 203e bf6f a8bd 2e33 67be
00000010: e70a 7abd 9ac9 403e 9ddb 753e 881b 62be
00000020: 6cc9 fe3d 3535 983e 05df 023f 310b 273e
00000030: bbab fa3b 742a 9bbe 39cf b8bd 292d 013f
00000040: f4e9 cb3d 7528 3b3e 0865 8dbd d884 6ebe
00000050: 72e3 533e 1344 343e f0da 38be 255a be3c
00000060: ef5d 6b3e b0ce 7c3e 2a70 ad3c 8abc f13e
00000070: 819c 68bd 0ba9 c23e 7bb5 803e 9cc1 c33d
00000080: 1710 3dbe 0fd6 fd3d ff5b b5be b228 96be
00000090: 7152 9dbe bdea fc3e ba2f c2bd 47dd 09bd
000000a0: 4dde c4bd 9750 a8bd 688d 463d 8d70 5dbe
000000b0: 2650 20be f13a c73e 72ef 6dbe ebad 0d3e
000000c0: c535 1d3e 5909 bf3d 4ba9 103e dc01 8dbc
000000d0: 0463 413c e6cc 0c3e c113 8d3c b6fd e43d
000000e0: ba6f 693d e43a e33b 502b 99be 0bc1 9e3d
000000f0: 578f 7c3e e89f 08bf 44e4 56be cb37 db3d
00000100: faec 403e 4927 263e 46fc 33be d89a 60be
00000110: b24d d8be fc23 b4be dc7b e5be d465 a8be
00000120: 168a adbe 1a9b 0b3d a101 353d a3a7 4f3e
00000130: 8bbd cb3d b1b9 61bd dc94 7b3e 9490 bcbd
00000140: 866a 803e 88ee 82be 55bd 1ebe ba14 34be
00000150: 8962 623e 2dc2 9a3e 8728 b2be f78f 04be
00000160: e147 3e3d b9a5 313d bd91 6fbe cbbb ffbe
00000170: e622 88be 6255 ca3e f759 7bbe 8f96 1b3e
00000180: 1df7 80bb adba ef3e bb6e e1be 5af7 a33e
00000190: 13d5 363e 0ba4 ec3e d90c c3be a77a a0be
000001a0: 0a11 453e 6245 083f 0cc3 203e d26d 153f
000001b0: 8283 a8bc d2b0 8b3d ec56 0fbe 46f0 713e
000001c0: d67d 61be 3c61 4ebe 8162 ac3d 31e9 37be
000001d0: 10f8 963e ce27 e3bc 6c9e 0f3e 4055 14be
000001e0: 2bf8 e43d 0329 11be 0487 ebbd 9620 a9be
000001f0: 5542 1bbe fffa fb3d 7e05 05be b318 a93e
00000200: c566 513d 0539 203e f80a 853d 9032 9cbe
00000210: e9a6 8e3d 71e8 513c 0576 4dbc 15d2 2fbd
00000220: be93 f23e bf44 9abd a298 5dbe f5fb cdbe
00000230: 6ff8 7d3e 9dff 78be 0333 80be 2ff6 713e
00000240: 14d5 633e 0ffd 183f 9c50 a2bd f992 bcbe
00000250: 10bf bcbe 6933 183f 6982 3cbe 88b1 fbbe
00000260: 8430 2fbe 9c9c d13e 10c9 c73c 6fc5 623e
00000270: 545f 223f 7feb a8be e691 c8be bf0d af3c
00000280: 559a d43e e22f ec3c 0e73 b03e 5855 dfbd
00000290: 55c0 a1be fe97 33be 417f bbbe 34f0 55be
000002a0: a88b dc3d b0aa 583d 102c 7ebd a8ab a33e
000002b0: 29eb 0e3e 057d a53e 308e 7b3d d019 fabd
000002c0: 3f60 a1bd 0025 85bc c546 69be 3421 9d3e
000002d0: cc48 f83d 31de e33e bee7 f1be fd6c 0f3e
000002e0: 5685 333c 10c2 af3e 9566 4d3e 647b 9ebe
000002f0: 7d5d 27be 942d 833d 21d1 15be 93ee 43be
00000300: 7e9c 72be a4b9 e33e cfdf 373e d33c df3d
00000310: 0d60 42be 4a87 fa3d c392 953d 0075 1bbe
00000320: 854c fc3e 2e24 9b3e 99bc 983e 7984 0e3e
00000330: d76a cc3d 8985 8a3e d499 313e a9d2 613e
00000340: d9cf 08be 6800 853e 509c 17bd c5ae 43be
00000350: 2a3a 97be 18a8 4c3e 8ec1 16be 2f3f 25be
00000360: 9ab9 ddbd 00d3 97be 2cf8 5a3e 61b2 983e
00000370: 1798 88be dfc6 6f3d 873f 763e f2a2 8ebe
00000380: cff8 a7be dfa8 193e a506 6c3e e165 5bbe
00000390: eea7 a33e 0f57 00bd 7725 0abe 1272 dc3e
000003a0: e44f cd3d 42ce 993e 8fe0 d23c 0cb5 3ebe
000003b0: 565c dcbc 3428 ae3e a91b 83be c6c1 183f
000003c0: 4f30 863e bf17 8b3e c9e5 04be 06b9 573e
000003d0: 621f 9f3e 7fa3 6b3e 2687 e23d 2b93 67be
000003e0: fc49 003f 4219 cb3d 8151 97be 24a8 953d
000003f0: bb84 5b3e 4c53 3f3e f84b ecbd df5c ff3c
-0.20155747 0.15631473 -0.08224439 -0.22578117 -0.061045554 0.18826905 0.24009557 -0.22080815
0.12440762 0.29728094 0.5112155 0.16312863 0.0076498664 -0.30305827 -0.090238996 0.50459534
0.099567324 0.18277152 -0.06904036 -0.23292863 0.20692232 0.17604093 -0.18052268 0.023236344
0.22985052 0.2468822 0.021171648 0.47214156 -0.05678988 0.38019595 0.2513846 0.095584124
-0.18463169 0.12394344 -0.3542175 -0.29327923 -0.3072696 0.4939784 -0.09481759 -0.033658292
-0.09612713 -0.08218496 0.0484747 -0.21624966 -0.15655574 0.38912156 -0.23235872 0.13835876
0.15352543 0.09327955 0.1412708 -0.0172128 0.011803392 0.13750038 0.017221333 0.11181204
0.056991316 0.0069345105 -0.29915857 0.07751664 0.24664055 -0.53369 -0.20985514 0.10704001
0.188404 0.16225924 -0.17576703 -0.21934068 -0.42246777 -0.35183704 -0.4482106 -0.3289019
-0.33894414 0.034083463 0.044191007 0.20278792 0.09948262 -0.05510873 0.24568504 -0.092072636
0.2508127 -0.2557261 -0.15501912 -0.17586032 0.221079 0.3022627 -0.34796545 -0.12945543
0.046455268 0.043370936 -0.23395438 -0.49947962 -0.26589125 0.39518267 -0.24546038 0.15194152
-0.003935708 0.4682211 -0.44029793 0.32024652 0.17854719 0.46218905 -0.3809574 -0.31343576
0.19244781 0.5323087 0.15699404 0.583707 -0.02057052 0.06820835 -0.13998002 0.23626813
-0.22020659 -0.2015428 0.08417226 -0.17960049 0.29486132 -0.027728941 0.14025277 -0.14485645
0.11180147 -0.14175801 -0.115003616 -0.33032674 -0.15162022 0.12303733 -0.12990376 0.33026657
0.0511234 0.15646751 0.06496233 -0.30507326 0.06965429 0.012811766 -0.012540345 -0.04292496
0.47378343 -0.075326435 -0.21640256 -0.4023129 0.24801801 -0.24316259 -0.2503892 0.23629068
0.22249252 0.59761137 -0.07925531 -0.3683088 -0.3686452 0.59453446 -0.18409123 -0.49158883
-0.17108351 0.40939796 0.024387866 0.22145627 0.6342671 -0.3299217 -0.39173812 0.02136886
0.41523996 0.028831426 0.3446278 -0.1090495 -0.3159205 -0.17538449 -0.36620525 -0.20892411
0.10768825 0.052897155 -0.06205374 0.319669 0.13956894 0.32321945 0.061414897 -0.122119546
-0.078796856 -0.016252995 -0.22780903 0.30689394 0.1212326 0.44505456 -0.47247118 0.1400642
0.010957083 0.34327745 0.20058663 -0.30953515 -0.16344257 0.06405178 -0.14630558 -0.19133978
-0.2369251 0.4447757 0.1795647 0.10900273 -0.18981953 0.122328356 0.07303383 -0.1518135
0.4927713 0.3030104 0.2983139 0.13917722 0.099813156 0.27055004 0.17343837 0.22053017
-0.13360538 0.25976872 -0.037014306 -0.19109638 -0.29536563 0.19985998 -0.14722273 -0.16137384
-0.10826416 -0.29653168 0.21383733 0.29823592 -0.26678535 0.058539268 0.24047671 -0.27858692
-0.32807013 0.15005825 0.2304941 -0.21425582 0.31964058 -0.031333026 -0.13490854 0.4305578
0.100250036 0.30040175 0.025741844 -0.18623751 -0.026899498 0.34015048 -0.2560704 0.59670675
0.26208732 0.27166554 -0.12978281 0.21066675 0.3107863 0.23011588 0.11060934 -0.22614734
0.5011289 0.09916927 -0.2955437 0.07307461 0.21437351 0.18684119 -0.115379274 0.031172214

lstm.bias_ih_l1 f4 [48]
00000000: 1ed7 52bd 3d60 1b3e 8cb2 30be edfd debc
00000010: a49f c53e 661c f73e e866 1cbe 2573 3c3e
00000020: dccf e93d f7fa 8f3d 9d5f 0bbd 285e 97ba
00000030: f4e7 00bd ad97 283e 1231 dbbd d563 7c3e
00000040: e13d ccbd 9853 bd3e 74d4 d7bd 6392 383e
00000050: c44b bc3d 8c1c 4e3e 708a 45be 84ea ac3d
00000060: feaa 023e 4000 133d 14ba 02bd d9d8 8abd
00000070: d72a f1bd 5a96 8a3e 171d 443e 8b4d f53d
00000080: 2d2a 4ebe 6f80 17be 598c 223d 1bda 0bbe
00000090: 357c 95bd ba38 a2bd 8715 34bd 2d75 ccbd
000000a0: 67e9 663e 70ce ebbc 3bd1 35be ad62 833e
000000b0: c641 ae3e d1eb 12be d734 f23c 5d6a 8a3c
-0.051474683 0.1517343 -0.1725561 -0.02722069 0.3859836 0.48263854 -0.1527363 0.18403299
0.11416599 0.070302896 -0.03402673 -0.0011548446 -0.031471208 0.1646411 -0.10702719 0.24647458
-0.0997274 0.3697784 -0.10538569 0.18024592 0.09194139 0.20128077 -0.19291091 0.08443168
0.12760541 0.03588891 -0.03191574 -0.06779642 -0.11775749 0.27067834 0.19151722 0.11977681
-0.20133276 -0.14795087 0.039684627 -0.1365742 -0.07299081 -0.07920976 -0.043965843 -0.09983287
0.22549973 -0.02878496 -0.17755596 0.2566122 0.34034556 -0.1434777 0.029566212 0.016896421

lstm.bias_hh_l1 f4 [48]
00000000: 39f6 c2be 8445 4abd 37dd 783e 7491 6f3e
00000010: 194a 20be ce3a fa3e 6b9d 753e b797 5c3d
00000020: 7c75 b03e 1577 863d ce5d 6cbe ba05 273e
00000030: a13f 53be e496 ec3e a590 2dbe 90c7 e73e
00000040: 0fff 2b3c 5e40 8a3d 26cc 8f3e 1dad 493e
00000050: d8ce 2bbc 1f75 6dbe 4519 c0bd f5c8 343c
00000060: dd7a 9a3d 535f 503e ba83 ccbd ebe7 cc3d
00000070: 8903 3e3e ce2d 8ebd 7125 ddba 9e8f 84be
00000080: 4987 86be 9fed 5d3e cf7b a9be d6ee 4abe
00000090: 1d4e 9bbd 0cae ad3d afb3 ec3d 7e68 c73e
000000a0: e19e f83d a1e3 893e dfdb 3bbe 2f46 e1bc
000000b0: efd5 3b3e 2d9f 8ebe 34f2 99bd 6f47 8a3e
-0.38078478 -0.0493827 0.24303137 0.2339533 -0.15653266 0.4887299 0.23985831 0.053855624
0.34464633 0.06565682 -0.23082659 0.16310778 -0.20629741 0.4620887 -0.16949709 0.45269442
0.010497822 0.06750558 0.2808544 0.19694944 -0.010486327 -0.2318921 -0.0937982 0.01103424
0.075429656 0.20348863 -0.09986062 0.10005172 0.18556036 -0.0694233 -0.001687212 -0.2589082
-0.2627509 0.21672677 -0.3310227 -0.19817671 -0.07583258 0.084804624 0.115577094 0.3894691
0.12139679 0.2693148 -0.18345593 -0.027499286 0.18343328 -0.27855816 -0.075169 0.27007625

linear.weight f4 [1, 12]
00000000: 970a 7b3e ecef ad3d e745 bcbb 3a29 5abe
00000010: a0fd 00bc 568d c3be e2db 3a3e 4022 933e
00000020: 0892 a53c 7520 78bd b321 873c a3ea a1be
0.24515758 0.08493027 -0.0057456377 -0.21304789 -0.007872969 -0.38193768 0.18247941 0.28737068
0.020211235 -0.06057783 0.016495561 -0.31624326
