nn_16Sec.pt (torch_old, 9650 bytes, 9 tensors)

lstm.weight_ih_l0 f4 [48, 1]
-0.20840982 0.19466217 0.013846051 -0.33966458 -0.16833203 -0.41855106 -0.38489288 -0.30227968
-0.27233347 -0.1380899 0.15484434 0.07483705 -0.20996429 0.43259802 0.10059554 -0.15001452
0.033747904 0.10381217 -0.33163568 -0.22153196 -0.19693051 0.012458565 0.19705208 0.25122103
-0.5117951 -0.21557495 0.35251403 -0.13881092 0.47112095 0.20001382 0.53120124 -0.3416718
0.3645567 -0.082257956 -0.38435 -0.15352297 -0.5991092 0.0030937123 -0.37497017 -0.46873748
0.11835777 0.2300092 -0.539293 -0.037032276 -0.5102477 -0.109318644 0.32669887 0.17574105
00000000: 6269 55be 8555 473e 8cda 623c 84e8 adbe
00000010: 3b5f 2cbe 534c d6be ae10 c5be 67c4 9abe
00000020: 4b6f 8bbe 7067 0dbe 848f 1e3e 2b44 993d
00000030: e100 57be 7d7d dd3e 0905 ce3d 689d 19be
00000040: 3e3b 0a3d 7a9b d43d 27cc a9be 46d9 62be
00000050: 27a8 49be 021f 4c3c 05c8 493e 0ba0 803e
00000060: 0105 03bf aebf 5cbe b87c b43e 7324 0ebe
00000070: c436 f13e 6cd0 4c3e cefc 073f 9bef aebe
00000080: 2da7 ba3e dc76 a8bd 86c9 c4be 2035 1dbe
00000090: 385f 19bf e1bf 4a3b 17fc bfbe 5cfe efbe
000000a0: 8f65 f23d 8887 6b3e 1b0f 0abf 28af 17bd
000000b0: 989f 02bf 74e2 dfbd 1345 a73e 76f5 333e

lstm.weight_hh_l0 f4 [48, 12]
-0.060030837 -0.17543659 -0.10050639 -0.40622625 -0.18181385 -0.22451603 -0.3114918 0.24138342
-0.14235602 0.048747372 -0.19247827 0.19240889 0.28221613 -0.30335814 0.04377774 -0.4527624
-0.15584795 0.0107162725 0.20512736 -0.014140254 -0.28989345 0.17645478 -0.39081797 0.17393653
-0.10406262 -0.38053277 0.3291241 -0.43508655 -0.008468308 0.028415207 0.17326654 -0.25835648
-0.0610578 0.4969208 -0.22653869 0.4665149 0.4379405 0.21582113 0.34185144 0.17324954
-0.13030529 0.12738144 -0.18929441 -0.09970877 -0.0151298065 0.19171178 0.2761473 0.052347038
-0.17669244 -0.10370918 0.18724471 -0.54534334 0.10663228 -0.35531574 0.04527379 0.14544953
-0.23341474 0.3341044 -0.36477053 0.18919492 -0.5025402 -0.37830737 0.49134457 0.1520514
0.29054052 -0.35577857 -0.28334317 -0.36369514 -0.13870825 0.28977263 -0.23524319 -0.06443761
0.0071374774 -0.11369335 0.013600155 -0.1861785 0.19785982 0.081091024 -0.02225979 -0.0255072
-0.32316592 0.4234502 0.10349364 0.3071668 0.17585926 -0.39023033 0.24107893 -0.29314137
-0.33834213 0.14547051 -0.25729007 -0.15213251 -0.20216 0.5163058 -0.017243871 0.32468864
0.19051254 -0.17505726 0.032155924 -0.15985753 0.0273656 -0.14886978 -0.11497644 -0.09234455
-0.08488679 0.11769582 0.126305 0.32492635 -0.44351098 -0.5168119 0.4836101 -0.48527247
-0.0051839426 -0.20846939 0.26171342 -0.12043342 0.26946467 -0.11598358 -0.10899634 0.40371215
0.059158478 0.016604438 0.3330328 -0.18005818 0.27228987 -0.04809733 -0.05374194 0.10456047
-0.30018175 0.28601938 -0.56514454 0.31863922 -0.28327873 -0.19706498 -0.118409395 0.26610613
-0.04762489 -0.23465744 0.024963994 0.12592793 -0.06120403 0.3467065 -0.2815811 0.28816658
0.35792324 -0.10528864 -0.3782748 -0.14674738 -0.49092007 -0.09263715 -0.21802379 0.22822587
-0.12459202 0.012804056 0.15194905 0.05864856 0.20433955 -0.3040564 0.42398986 -0.39598528
-0.16961499 -0.1801895 0.3972627 -0.20454629 -0.19274856 0.080591515 -0.1075057 0.22003976
0.25837538 -0.41157562 0.4178575 -0.1943785 0.4021536 -0.12747568 0.4190578 0.17017771
0.3669961 0.3021935 -0.40665874 -0.051245727 0.122479305 0.30956763 0.32574272 -0.17307606
0.3505048 -0.25781527 -0.28010637 0.0161022 -0.13933174 0.11795593 -0.5150321 0.38660356
-0.28325605 -0.20329943 0.41795388 -0.5961303 0.26943377 -0.39441946 0.12707423 -0.16684772
0.047321137 0.15821303 -0.6281368 0.3437121 -0.05181139 -0.032763913 0.08424594 -0.20711815
0.15435036 -0.4300276 -0.17109568 -0.07708173 0.16173708 0.10869208 -0.36312544 0.39392588
0.23469731 -0.21611603 -0.029764568 -0.36216143 -0.12793572 0.0060346266 -0.1717198 0.14757638
-0.054192644 0.17161004 0.016492618 -0.15460409 -0.22652568 -0.17957853 -0.17174423 -0.121675804
-0.68396485 -0.35318765 -0.2656982 0.0725887 0.049562164 0.51371205 0.037920613 0.34664524
0.005544308 -0.1139766 0.0141044315 0.052539393 -0.15557794 0.12482498 0.27155146 -0.23494822
-0.051132187 -0.19081932 0.10073674 -0.027661312 -0.07300084 0.01622053 0.57411253 -0.09101833
00000000: e5e2 75bd a6a5 33be 4bd6 cdbd e3fc cfbe
00000010: 692d 3abe 88e7 65be da7b 9fbe 372d 773e
00000020: c7c5 11be 53ab 473d 0619 45be d606 453e
00000030: a27e 903e c251 9bbe 4a50 333d 79d0 e7be
00000040: 9b96 1fbe 4e93 2f3c e80c 523e 86ac 67bc
00000050: ea6c 94be 90b0 343e 4b19 c8be 6b1c 323e
00000060: c81e d5bd 31d5 c2be f482 a83e aac3 debe
00000070: a8be 0abc 02c7 e83c c96c 313e 4d47 84be
00000080: be17 7abd 676c fe3e c2f9 67be 0adb ee3e
00000090: bd39 e03e 3700 5d3e 2707 af3e 5468 313e
000000a0: c06e 05be 4870 023e 65d6 41be 1d34 ccbd
000000b0: 02e3 77bc 1850 443e 2e63 8d3e d969 563d
000000c0: ddee 34be 7b65 d4bd 14bd 3f3e 9f9b 0bbf
000000d0: 0662 da3d f2eb b5be 0271 393d b9f0 143e
000000e0: 4604 6fbe bb0f ab3e 34c3 babe 50bc 413e
000000f0: 79a6 00bf 81b1 c1be 8491 fb3e 5db3 1b3e
00000100: bac1 943e 9c28 b6be 5b12 91be 4036 babe
00000110: 8909 0ebe 145d 943e 97e3 70be def7 83bd
00000120: 80e1 e93b 0fd8 e8bd 2fd3 5e3c 94a5 3ebe
00000130: c49b 4a3e 0d13 a63d 2a5a b6bc 7af4 d0bc
00000140: 0176 a5be 77ce d83e 79f4 d33d f844 9d3e
00000150: 7314 343e 45cc c7be 65dd 763e a016 96be
00000160: 2e3b adbe 39f6 143e 86bb 83be a0c8 1bbe
00000170: 0803 4fbe 9e2c 043f 0543 8dbc 973d a63e
00000180: b815 433e 3642 33be eeb5 033d b1b1 23be
00000190: d32d e03c 5271 18be c578 ebbd 241f bdbd
000001a0: 20d9 adbd 820a f13d 1956 013e bf5c a63e
000001b0: df13 e3be c94d 04bf be9b f73e a275 f8be
000001c0: 10de a9bb 0079 55be 4dff 853e cca5 f6bd
000001d0: 46f7 893e cd88 edbd 7939 dfbd 5cb3 ce3e
000001e0: 2950 723d 0806 883c 4683 aa3e 2c61 38be
000001f0: 9469 8b3e b501 45bd 8220 5cbd cd23 d63d
00000200: 6cb1 99be 2271 923e 50ad 10bf ae24 a33e
00000210: e909 91be 67cb 49be a080 f2bd 103f 883e
00000220: 5112 43bd 0a4a 70be 4a81 cc3c 40f3 003e
00000230: 14b1 7abd 8483 b13e 662b 90be 928a 933e
00000240: b741 b73e 92a1 d7bd 3cad c1be f244 16be
00000250: e059 fbbe 8cb8 bdbd a141 5fbe 0bb4 693e
00000260: 1a2a ffbd 1ac8 513c 8898 1b3e 7939 703d
00000270: 633e 513e 48ad 9bbe 3315 d93e 95be cabe
00000280: 8daf 2dbe 9983 38be 0466 cb3e 9574 51be
00000290: e15f 45be 2a0d a53d f32b dcbd 1a52 613e
000002a0: c749 843e 0aba d2be 6bf1 d53e 280b 47be
000002b0: 14e7 cd3e fc88 02be be8e d63e 1143 2e3e
000002c0: eae6 bb3e 1bb9 9a3e 9335 d0be 0ae7 51bd
000002d0: 6ed6 fa3d a67f 9e3e c0c7 a63e da3a 31be
000002e0: 5d75 b33e 5d00 84be 1a6a 8fbe c3e8 833c
000002f0: fbac 0ebe e192 f13d 25d9 03bf e7f0 c53e
00000300: f006 91be ba2d 50be 0dfe d53e ff9b 18bf
00000310: 39f3 893e 59f1 c9be bf1f 023e 21da 2abe
00000320: cfd3 413d 9902 223e 93cd 20bf 08fb af3e
00000330: 2e38 54bd 7433 06bd 2389 ac3d c816 54be
00000340: 050e 1e3e 942c dcbe b533 2fbe 07dd 9dbd
00000350: 689e 253e f499 de3d 94eb b9be a7b0 c93e
00000360: 7e54 703e 854d 5dbe d3d4 f3bc 396d b9be
00000370: 9501 03be 1ebe c53b 51d7 2fbe 431e 173e
00000380: 1bf9 5dbd 8bba 2f3e 871b 873c 8950 1ebe
00000390: 59f6 67be 6fe3 37be b8dd 2fbe 2a31 f9bd
000003a0: 5218 2fbf 03d5 b4be 9809 88be 62a9 943d
000003b0: b201 4b3d a282 033f a552 1b3d 7c7b b13e
000003c0: 07ad b53b 906c e9bd 4616 673c 8c33 573d
000003d0: d34f 1fbe 3da4 ff3d cb08 8b3e 4496 70be
000003e0: fc6f 51bd 2466 43be 104f ce3d fa99 e2bc
000003f0: 7781 95bd ebe0 843c 0af9 123f d167 babd

lstm.bias_ih_l0 f4 [48]
0.44422665 0.32871455 0.15044634 0.05108423 0.29883945 -0.18221568 0.2844605 0.041641623
0.21526654 -0.11486689 0.12162914 0.27422547 0.33697963 0.2310618 0.22510043 0.4398748
0.08991572 0.15190975 0.11989914 0.03631616 0.083390504 0.17142136 0.04915685 -0.03578366
0.024255075 -0.030880362 -0.07744117 -0.08182771 -0.21453598 -0.26427147 0.24780487 0.30193758
0.23478392 0.3176248 -0.2571824 0.088890426 0.1696649 0.17959045 -0.06734674 0.5501602
0.3252807 -0.12715681 0.13286507 0.17968708 -0.13352887 0.28900808 0.1847303 0.4224739
00000000: ad71 e33e 464d a83e 9b0e 1a3e b33d 513d
00000010: 7c01 993e bf96 3abe cfa4 913e 6890 2a3d
00000020: d56e 5c3e 553f ebbd b318 f93d 4867 8c3e
00000030: 9888 ac3e 779b 6c3e ba80 663e 4537 e13e
00000040: bc25 b83d 3b8e 1b3e ae8d f53d 41c0 143d
00000050: a4c8 aa3d 1589 2f3e b158 493d e391 12bd
00000060: 94b2 c63c d0f8 fcbc 7a99 9ebd 4995 a7bd
00000070: 52af 5bbe 974e 87be 8fc0 7d3e 9097 9a3e
00000080: 326b 703e b89f a23e 69ad 83be 2f0c b63d
00000090: a3bc 2d3e 8fe6 373e 16ed 89bd 4dd7 0c3f
000000a0: 318b a63e 6535 02be c80d 083e e4ff 373e
000000b0: cbbb 08be def8 933e f129 3d3e 804e d83e

lstm.bias_hh_l0 f4 [48]
0.2565556 0.32711828 0.28605643 0.5073365 0.4852017 0.21919814 0.2757444 0.42757285
0.052253723 0.015078553 0.50411373 -0.037793715 0.20433709 0.14694235 0.10222686 0.09574028
0.23351476 0.44969127 -0.17165124 0.37541953 -0.024809672 -0.058827583 -0.085820444 0.09903994
-0.04200884 -0.24476676 0.08377508 -0.16091439 0.19187212 -0.16591913 -0.21973842 -0.12923709
-0.27568853 0.36183333 0.10442026 0.18569787 0.08850788 0.0032803167 0.15189968 0.040185478
0.21811773 0.025008652 0.3183189 0.13087602 0.32765195 0.38336197 0.49654344 0.43199944
00000000: 415b 833e 0c7c a73e fd75 923e cee0 013f
00000010: 5b6c f83e 7a75 603e 5f2e 8d3e d4ea da3e
00000020: 0008 563d 090c 773c 990d 013f 95cd 1abd
00000030: be3d 513e 0e78 163e 515c d13d 7b13 c43d
00000040: 7e1e 6f3e ef3d e63e 58c5 2fbe fd36 c03e
00000050: a73d cbbc 31f5 70bd a1c2 afbd 74d5 ca3d
00000060: 7611 2cbd 23a4 7abe 4592 ab3d bec6 24be
00000070: 207a 443e b4e6 29be 1c03 61be ba56 04be
00000080: 0c27 8dbe 3842 b93e 4ada d53d 9527 3e3e
00000090: 9f43 b53d 95fa 563b 978b 1b3e 8799 243d
000000a0: 415a 5f3e f2de cc3c b2fa a23e 5d04 063e
000000b0: ffc1 a73e 0548 c43e f13a fe3e 082f dd3e

lstm.weight_ih_l1 f4 [48, 12]
0.48752317 0.3125045 -0.2982314 0.10051043 -0.39167967 -0.7178124 -0.15959416 0.5683986
-0.33869597 0.49493247 0.3328564 0.55886084 0.13831584 -0.024186453 -0.54096717 0.06811011
-0.11937286 0.03245046 0.18761458 -0.0071546664 -0.14235376 -0.01172313 0.123425834 0.12879752
0.22346653 -0.12281669 0.07389765 -0.0071232747 -0.13027115 -0.29128158 0.0070801913 0.20805939
-0.43344826 0.3398097 -0.35107607 0.015736135 -0.041187156 0.20053607 -0.0036313557 -0.34037295
-0.14269672 0.17934749 -0.20210624 -0.08930442 -0.26087674 0.44036287 0.09412318 -0.22316927
0.48898882 0.15459235 -0.31455815 -0.3159846 -0.4498566 0.17972556 -0.4781913 0.13632332
-0.59647924 0.45781997 0.1927936 0.46544445 -0.09541978 0.02662258 -0.021316018 -0.29603902
0.34937927 -0.29269934 0.121417284 -0.6108529 0.056247603 0.25411895 -0.47024268 0.1268607
-0.07242256 0.06440527 -0.099924326 0.071697354 0.98067427 0.17715761 -0.036655765 0.17439353
0.49875617 -0.5050402 0.1538722 0.17331849 -0.36699206 -0.17905487 0.12548198 -0.38369215
0.058704868 -0.20309801 -0.20645633 -0.16707951 -0.2167336 -0.057809096 -0.40114582 0.143463
-0.05306783 0.539993 -0.16787755 -0.3310579 -0.26541358 -0.039568804 -0.31347102 0.09049334
-0.1466909 0.37042326 -0.057767477 -0.12623417 -0.09690023 0.12628596 0.13232297 0.010123524
0.19256185 0.025018776 0.29096133 -0.11122535 0.090816714 0.22218521 -0.09486425 -0.2409677
0.18878494 -0.25959697 0.00834263 0.107762955 -0.28226942 -0.16802117 -0.3403117 0.24716252
-0.3335859 0.050991558 0.2722544 -0.13107842 0.7680125 0.4297779 -0.43334833 -0.07742453
-0.21826784 -0.284365 -0.21262272 0.44805968 -0.3539204 -0.11471023 0.34615588 -0.014383893
0.16768806 -0.10482755 0.2339774 0.4377951 -0.6810185 -0.07786494 -0.50327563 0.1408644
-0.07021846 0.50158966 -0.046403583 0.37737054 0.17373632 -0.080889896 0.20002957 -0.9360925
0.022177162 0.054770716 -0.59756696 0.39200988 -0.23737235 0.53375393 -0.35090372 0.3750781
-0.16589737 0.10904872 0.13462934 -0.052551486 -0.2695498 -0.05512145 0.101339996 -0.0044354624
-0.3178688 0.20554022 -0.16771391 -0.13928533 -0.34085628 0.073927596 0.09138529 -0.30595657
-0.12465024 0.12071303 -0.17876428 -0.09062286 0.058736604 0.008488113 0.07320256 -0.21585944
0.27177966 0.17772532 -0.4515212 -0.2772275 0.10694051 -0.28156343 -0.48450497 -0.009775123
-0.039317984 0.1190495 0.29736328 0.16914102 0.036093995 -0.40190804 0.22516474 -0.35133418
0.08153732 0.12482504 0.053277973 -0.03402238 0.11215632 0.3395522 0.041565385 -0.02550525
-0.06440544 -0.8143941 0.69713384 -0.37145564 0.21185976 -0.23339042 0.24595936 -0.69497275
0.06543623 0.12508214 -0.6506923 -0.49867052 -0.3599122 0.025767816 0.13130035 0.038976353
-0.022790339 0.010350963 0.03261036 -0.043960508 0.027037196 0.41532874 0.042848613 -0.0056569227
-0.05415289 0.18668579 -0.0018534955 -0.16145504 -0.100997195 -0.25064203 -0.12138602 0.40941244
-0.16883916 0.2787647 0.1776955 -0.09050165 -0.17275502 -0.1764263 -0.012188201 0.10347347
00000000: a39c f93e 9700 a03e c9b1 98be 6ad8 cd3d
00000010: 3d8a c8be 8ec2 37bf a76c 23be 9282 113f
00000020: 8f69 adbe ca67 fd3e 276c aa3e 8111 0f3f
00000030: aba2 0d3e ab22 c6bc d37c 0abf 507d 8b3d
00000040: c279 f4bd c6ea 043d 091e 403e b171 eabb
00000050: 2fc5 11be 5f12 40bc afc6 fc3d 7fe3 033e
00000060: 69d4 643e 5187 fbbd a757 973d 5c6a e9bb
00000070: cd65 05be dc22 95be f300 e83b 850d 553e
00000080: eeec ddbe 89fb ad3e 3ec0 b3be 11e9 803c
00000090: ddb3 28bd 5459 4d3e 0afc 6dbb 5d45 aebe
000000a0: 171f 12be dea6 373e f0f4 4ebe 3ce5 b6bd
000000b0: a391 85be 3e77 e13e a7c3 c03d 7c86 64be
000000c0: be5c fa3e 754d 1e3e c40d a1be bcc8 a1be
000000d0: 9b53 e6be fa09 383e 7dd5 f4be 5798 0b3e
000000e0: ddb2 18bf 6167 ea3e af6b 453e bc4e ee3e
000000f0: 726b c3bd 9917 da3c ee9e aebc 6d92 97be
00000100: d7e1 b23e b0dc 95be a0a9 f83d db60 1cbf
00000110: e363 663d e11b 823e a6c3 f0be c5e7 013e
00000120: 4752 94bd e9e6 833d 20a5 ccbd 10d6 923d
00000130: 780d 7b3f ce68 353e 5b24 16bd 3894 323e
00000140: f85c ff3e 514a 01bf ad90 1d3e 677a 313e
00000150: 62e6 bbbe 295a 37be 597e 003e 4c73 c4be
00000160: 8474 703d edf8 4fbe 4a69 53be e416 2bbe
00000170: 6aef 5dbe 3bc9 6cbd fc62 cdbe f7e7 123e
00000180: a75d 59bd fb3c 0a3f 18e8 2bbe 6c80 a9be
00000190: 4ae4 87be e612 22bd 467f a0be 9254 b93d
000001a0: 2436 16be 1ea8 bd3e 979d 6cbd 8843 01be
000001b0: a173 c6bd 1b51 013e ac7f 073e 23dd 253c
000001c0: ef2e 453e 2df4 cc3c e2f8 943e 1eca e3bd
000001d0: 1dfe b93d 8584 633e 3048 c2bd 3dc0 76be
000001e0: d750 413e e5e9 84be 87af 083c d3b2 dc3d
000001f0: 9e85 90be be0d 2cbe 563d aebe 2c18 7d3e
00000200: c5cb aabe 86dc 503d ee64 8b3e 6c39 06be
00000210: 789c 443f d90b dc3e d5df ddbe c190 9ebd
00000220: 9b81 5fbe 4a98 91be c5b9 59be 1468 e53e
00000230: 0e35 b5be 32ed eabd 583b b13e 6caa 6bbc
00000240: 6bb6 2b3e d4af d6bd c697 6f3e ae26 e03e
00000250: 3a57 2ebf a777 9fbd acd6 00bf c23e 103e
00000260: b2ce 8fbd 2e68 003f af11 3ebd b636 c13e
00000270: efe7 313e 9aa9 a5bd 8dd4 4c3e c2a3 6fbf
00000280: e1ac b53c 4257 603d 26fa 18bf 85b5 c83e
00000290: bd11 73be 19a4 083f a7a9 b3be 3d0a c03e
000002a0: 00e1 29be ef54 df3d 46dc 093e 3a40 57bd
000002b0: 6e02 8abe 08c7 61bd 588b cf3d 5b57 91bb
000002c0: b3bf a2be 2379 523e 32bd 2bbe d0a0 0ebe
000002d0: b784 aebe 5a67 973d 3628 bb3d 57a6 9cbe
000002e0: a048 ffbd 6538 f73d fc0d 37be 7a98 b9bd
000002f0: cb95 703d ba11 0b3c 39eb 953d 420a 5dbe
00000300: b426 8b3e a0fd 353e c92d e7be c3f0 8dbe
00000310: a003 db3d 1529 90be 0911 f8be d627 20bc
00000320: e50b 21bd 39d0 f33d 0040 983e 4e33 2d3e
00000330: 4cd7 133d e4c6 cdbe 9691 663e 13e2 b3be
00000340: 0afd a63d 45a4 ff3d 013a 5a3d 0d5b 0bbd
00000350: 36b2 e53d c9d9 ad3e 7740 2a3d 63f0 d0bc
00000360: 00e7 83bd 227c 50bf 5d77 323f 6f2f bebe
00000370: c4f1 583e e6fd 6ebe c5dc 7b3e bce9 31bf
00000380: 6e03 863d 8815 003e c593 26bf be51 ffbe
00000390: 6946 b8be 0717 d33c 9973 063e aba5 1f3d
000003a0: ceb2 babc 1697 293c 7192 053d ef0f 34bd
000003b0: 1c7d dd3c f8a5 d43e 0782 2f3d b55d b9bb
000003c0: 6ccf 5dbd 8f2a 3f3e fdf0 f2ba 7854 25be
000003d0: 9ed7 cebd 2754 80be 3c99 f8bd 829e d13e
000003e0: 2ce4 2cbe 3fba 8e3e cff5 353e ee58 b9bd
000003f0: b1e6 30be 19a9 34be 05b1 47bc e6e9 d33d

lstm.weight_hh_l1 f4 [48, 12]
-0.30713186 -0.18487404 -0.35531372 0.030685725 0.16335271 0.25412783 0.20310545 -0.11502001
0.38801485 -0.6063865 0.66145736 -0.33316037 -0.7710173 -0.37866786 -0.20874198 -0.2689697
-0.3489384 0.15276013 -0.28435892 0.20864931 0.0031420386 0.16294205 0.24519695 0.085635886
0.05428592 -0.008129389 -0.12452225 0.054038282 -0.20326191 -0.2632332 0.0689141 -0.12919945
-0.07006918 -0.314267 -0.31307915 -0.007222955 0.31418735 0.109718494 -0.27334484 -0.25664392
-0.115133375 0.15414633 -0.044225037 -0.17170168 -0.049599845 0.28488842 -0.20267162 -0.04925275
-0.38732758 -0.09047741 0.04476737 0.8293512 -0.2955278 0.19832508 -0.67387146 0.05147595
-0.026866741 -0.022974348 0.58179134 -0.41350946 -0.8120737 0.03732634 -0.33416116 0.30967382
0.3311517 -0.25121576 -0.18082663 -0.07192923 0.8552597 -0.34122828 0.049650125 -0.09434105
-0.7776045 0.80053455 0.28101245 0.24661444 -0.083479196 0.2643796 -0.39705586 0.5092862
0.13576634 -0.42050272 0.58233744 -0.13003796 0.083123654 -0.046257194 -0.1704796 -0.080900416
-0.16769348 -0.26587948 0.003556134 0.14130948 -0.15119942 0.1959875 -0.17097782 -0.2786467
0.22015332 0.035924375 -0.42873514 -0.16395237 0.1494474 -0.12750652 -0.14118254 -0.13435681
0.52075595 -0.15089779 -0.30327088 -0.24528627 0.22336376 -0.6752789 -0.30405572 0.131901
0.7078779 -0.14388973 0.08381531 0.05203383 0.6829345 0.04248848 0.25086728 0.42546123
0.2618204 0.09628523 0.07035014 -0.20098509 0.25281194 0.049230367 0.07536342 0.11685463
-0.34343088 0.27016008 -0.02457797 -0.31973097 -0.120422356 -0.31385908 -0.04966255 -0.1029828
-0.30718702 0.35198617 -0.2235236 -0.013095655 -0.16536783 0.24749468 0.1259902 0.13193996
-0.4241631 -0.38381523 -0.39033478 0.19918878 0.11140566 0.117347434 -0.43458104 -0.109917104
0.019274797 -0.4149203 0.3343208 -0.16657469 -0.18756446 -0.034793813 -0.4133485 -0.012154923
0.034000214 -0.1577875 -0.11860709 -0.5963962 0.52763283 0.1963838 -0.19315387 -0.23271088
-0.16741246 0.009096897 -0.0016410028 0.07210115 -0.058256403 -0.165901 -0.5704932 -0.18587735
0.2390531 0.118144184 -0.016245501 -0.07627278 0.35605124 -0.347953 -0.14463511 0.1901025
0.34636456 -0.2677173 -0.028106526 0.19400942 0.3455544 -0.2682147 0.075620696 0.39980495
-0.3578263 0.33054408 -0.1731065 0.14610806 0.115923956 0.14160825 0.07959756 -0.071538344
0.46400207 -0.20528224 0.299998 -0.2244861 -0.3285218 0.04576861 -0.00037926334 -0.030137205
0.36088756 0.018931907 -0.3069927 -0.2014199 0.57959646 -0.38057414 -0.09831058 -0.26152405
-0.2764523 -0.31517586 -0.7342074 0.7491676 0.3608524 -0.41479582 -0.26672858 -0.4867537
0.12792951 -0.3315889 0.108956374 0.065806754 0.12053524 -0.20646328 -0.35230651 -0.1897809
0.07216994 0.15104443 0.102075346 -0.37385216 0.17414646 0.003844566 -0.24001804 0.017202834
-0.01754029 -0.08530249 -0.2955575 0.17985451 0.07066519 -0.48045993 -0.11763427 -0.08898904
0.3785853 -0.40363377 -0.32709596 0.1192174 -0.18175448 -0.26740006 -0.014856151 -0.09088296
00000000: 6340 9dbe 9f4f 3dbe aeeb b5be a160 fb3c
00000010: ef45 273e 0b1d 823e e0fa 4f3e 9c8f ebbd
00000020: e2a9 c63e 253c 1bbf 4555 293f ff93 aabe
00000030: 6461 45bf c1e0 c1be 75c0 55be 66b6 89be
00000040: 0ea8 b2be 276d 1c3e 7e97 91be 2aa8 553e
00000050: a9ea 4d3b 48da 263e e914 7b3e de61 af3d
00000060: ea5a 5e3d 2131 05bc 8505 ffbd 3f57 5d3d
00000070: e423 50be 81c6 86be d622 8d3d dc4c 04be
00000080: 6e80 8fbd 9be7 a0be e94b a0be 8aae ecbb
00000090: 2add a03e 17b4 e03d dbf3 8bbe d566 83be
000000a0: 0ccb ebbd 89d8 1d3e 5025 35bd 91d2 2fbe
000000b0: 3529 4bbd e5dc 913e 2689 4fbe 40bd 49bd
000000c0: cd4f c6be 384c b9bd fd5d 373d 5c50 543f
000000d0: 6b4f 97be bb15 4b3e d782 2cbf 72d8 523d
000000e0: a417 dcbc b334 bcbc 47f0 143f 83b7 d3be
000000f0: 10e4 4fbf 81e3 183d 2c17 abbe 918d 9e3e
00000100: b78c a93e 5a9f 80be 9e2a 39be a24f 93bd
00000110: 4df2 5a3f 79b5 aebe ee5d 4b3d e135 c1bd
00000120: 1711 47bf d5ef 4c3f dde0 8f3e 7f88 7c3e
00000130: 24f7 aabd c35c 873e e84a cbbe 9560 023f
00000140: 5506 0b3e 224c d7be 1114 153f ac28 05be
00000150: bc3c aa3d 2f78 3dbd 3492 2ebe 1eaf a5bd
00000160: d7b7 2bbe 5b21 88be 070e 693b 6fb3 103e
00000170: 05d4 1abe f2b0 483e cf14 2fbe c8aa 8ebe
00000180: df6f 613e 7025 133d 2c83 dbbe 21e3 27be
00000190: bd08 193e 1291 02be 2892 10be d594 09be
000001a0: 4350 053f f384 1abe 5246 9bbe 532c 7bbe
000001b0: 78b9 643e 14df 2cbf 31ad 9bbe 0e11 073e
000001c0: 7c37 353f d457 13be 5ca7 ab3d 6d21 553d
000001d0: ccd4 2e3f 6708 2e3d ad71 803e 0ed6 d93e
000001e0: 530d 863e 3131 c53d bc13 903d 09cf 4dbe
000001f0: 9170 813e c8a5 493d 2358 9a3d 7b51 ef3d
00000200: 2cd6 afbe 6c52 8a3e bd57 c9bc c7b3 a3be
00000210: ff9f f6bd 23b2 a0be f56a 4bbd a5e8 d2bd
00000220: 9e47 9dbe 8837 b43e 5fe3 64be 288f 56bc
00000230: 2f56 29be 3f6f 7d3e 9303 013e 451b 073e
00000240: e82b d9be 6e83 c4be f6d9 c7be 25f8 4b3e
00000250: a728 e43d da53 f03d 6881 debe 381c e1bd
00000260: 2ee6 9d3c 6f70 d4be 192c ab3e 8e92 2abe
00000270: e610 40be f583 0ebd 6aa2 d3be 7125 47bc
00000280: cf43 0b3d 0c93 21be 46e8 f2bd 6cad 18bf
00000290: f212 073f d618 493e 21ca 45be c34b 6ebe
000002a0: 2c6e 2bbe 270b 153c eb16 d7ba c5a9 933d
000002b0: 449e 6ebd f4e1 29be d80b 12bf a256 3ebe
000002c0: 56ca 743e 94f5 f13d 4915 85bc e734 9cbd
000002d0: 594c b63e e526 b2be 3a1b 14be 3baa 423e
000002e0: b256 b13e 3e12 89be a83f e6bc 68aa 463e
000002f0: 82ec b03e 7053 89be 06df 9a3d 3cb3 cc3e
00000300: 0235 b7be 133d a93e d542 31be 5a9d 153e
00000310: 8a69 ed3d c101 113e 0c04 a33d b282 92bd
00000320: ae91 ed3e 8235 52be 5699 993e afdf 65be
00000330: 0234 a8be de77 3b3d ddd7 c6b9 4de2 f6bc
00000340: 41c6 b83e 1617 9b3c 262e 9dbe 0541 4ebe
00000350: 6f60 143f 9dda c2be 0f57 c9bd 7be6 85be
00000360: 288b 8dbe bb5e a1be 04f5 3bbf 73c9 3f3f
00000370: a5c1 b83e 1e60 d4be a690 88be c837 f9be
00000380: f4ff 023e 05c6 a9be 8524 df3d b1c5 863d
00000390: 2edb f63d 1c6b 53be 8561 b4be ed55 42be
000003a0: d5cd 933d 64ab 1a3e e10c d13d 8d69 bfbe
000003b0: 7353 323e 1df5 7b3b 4ac7 75be f5ec 8c3c
000003c0: a7b0 8fbc 12b3 aebd 5053 97be c82b 383e
000003d0: e9b8 903d d8fe f5be 3cea f0bd e33f b6bd
000003e0: efd5 c13e 16a9 cebe 1f79 a7be 4128 f43d
000003f0: d91d 3abe a9e8 88be 3767 73bc d820 babd

lstm.bias_ih_l1 f4 [48]
0.0049524615 -0.31681058 -0.2059307 0.32076004 0.056227554 -0.109630555 -0.060728848 -0.036406387
-0.21600947 0.09575511 -0.21160561 -0.20556894 0.36683014 0.25162154 -0.22672263 -0.05957716
0.26719776 0.23073064 0.42941323 0.059822466 -0.24387276 -0.047408327 0.31040007 -0.09307509
-0.08094551 0.16193281 -0.21698762 0.22394463 0.039880797 -0.19436672 0.0015882462 -0.12648761
-0.047615185 -0.18116999 -0.016216414 -0.04675943 0.30604997 0.16943784 0.2610968 -0.15534589
0.06570994 0.24540913 0.26644617 -0.016978126 0.13466574 -0.14886951 0.17764443 0.19683856
00000000: 4248 a23b ff34 a2be 7fdf 52be a93a a43e
00000010: dd4e 663d fc85 e0bd d0be 78bd dd1e 15bd
00000020: 9631 5dbe 411b c43d 24af 58be aa80 52be
00000030: 29d1 bb3e 8ad4 803e fa29 68be 2e07 74bd
00000040: 25ce 883e a744 6c3e 0ddc db3e 6708 753d
00000050: c8b9 79be 3c2f 42bd c2ec 9e3e 279e bebd
00000060: c2c6 a5bd b7d1 253e 0132 5ebe be51 653e
00000070: 0c5a 233d 1208 47be b32c d03a f885 01be
00000080: 2408 43bd a084 39be 49d8 84bc d186 3fbd
00000090: 95b2 9c3e 1d81 2d3e 7bae 853e fe12 1fbe
000000a0: ef92 863d 884c 7b3e a26b 883e b615 8bbc
000000b0: d1e5 093e 4071 18be 6ce8 353e 0c90 493e

lstm.bias_hh_l1 f4 [48]
0.36481458 -0.013064488 -0.035876144 -0.12312662 0.15824425 -0.014822038 -0.46997732 -0.19578947
0.1831999 0.33243912 0.35731143 0.14231937 -0.041380595 -0.018967817 0.09627411 0.17449988
0.164234 0.012692905 0.2657343 0.34924814 0.1411508 0.030717434 0.17206635 -0.12990317
0.2280786 0.08454731 -0.01841975 -0.11554951 -0.103781775 -0.22549398 0.046826858 0.012463946
-0.007760855 -0.004645701 0.206857 -0.10375646 0.061997723 0.06122359 0.14662664 0.26137733
0.23394689 0.20990133 0.22716643 0.30000538 0.0068591186 -0.009791791 0.33386123 0.024843013
00000000: fac8 ba3e 6f0c 56bc ddf2 12bd cf29 fcbd
00000010: c80a 223e 22d8 72bc dea0 f0be 097d 48be
00000020: c198 3b3e 7635 aa3e 86f1 b63e 2bbc 113e
00000030: b37e 29bd 6562 9bbc 5c2b c53d 19b0 323e
00000040: f52c 283e e7f5 4f3c 530e 883e a7d0 b23e
00000050: d689 103e 21a3 fb3c 2932 303e 5605 05be
00000060: 708d 693e 2427 ad3d 04e5 96bc 39a5 ecbd
00000070: 8a8b d4bd e5e7 66be 85cd 3f3d 9435 4c3c
00000080: c54e febb f73a 98bb 52d2 533e 447e d4bd
00000090: 53f1 7d3d 96c5 7a3d 4b25 163e 40d3 853e
000000a0: c68f 6f3e 60f0 563e 519e 683e 4e9a 993e
000000b0: 75c2 e03b c06d 20bc dcef aa3e 9383 cb3c

linear.weight f4 [1, 12]
-0.2509034 0.2528508 -0.26862872 -0.17635098 -0.28778884 0.18310834 0.13558106 0.037773903
-0.20139377 0.16228066 -0.22885713 -0.24245593
00000000: 6976 80be a975 813e b489 89be 5a95 34be
00000010: 0f59 93be c180 3b3e c3d5 0a3e cfb8 1a3d
00000020: 2b3a 4ebe e72c 263e 8659 6abe 5e46 78be
