nn_16Sec_2642420-8079.pt (torch_old, 9566 bytes, 9 tensors)

lstm.weight_ih_l0 f4 [48, 1]
00000000: 25d4 bdbe 1e7c d83e 70bc bd3e b0b8 aebd
00000010: 48bf 583e b877 d93c 18b6 47be 65f5 453d
00000020: 9da1 9d3e f3d6 5cbf 8a99 4f3e c5e4 2cbe
00000030: 9ee5 88be b9da 9b3e 07c3 c83d 4e62 8ebe
00000040: 29d9 033f 5235 febd bc40 683e 0766 363e
00000050: 0625 093e 948c 2cbf 824d b23e c613 8bbe
00000060: 5e28 cb3e 39fe a4be c682 263e ad7d 923e
00000070: c5f1 51bd 5b82 efbe 9d9e 34be 3e56 863e
00000080: 4e1c e4bd ce82 d9bd e0fd b3be e1ef 653d
00000090: acd1 7cbe 7182 3d3e 252e 6ebe 3d74 b8be
000000a0: f8fc fc3e 13f5 1d3e 18ad c93e 9feb 373e
000000b0: db22 d6bd 10bc 27bf 9bfa 843e 8bcb 003e
-0.37075916 0.42282194 0.3705783 -0.0853132 0.21166718 0.026546344 -0.19503057 0.04832973
0.30787364 -0.86265486 0.20273414 -0.16884144 -0.26737684 0.3044031 0.098028235 -0.27809376
0.51503235 -0.12412514 0.22680944 0.17812358 0.1339303 -0.67402005 0.3482476 -0.27163523
0.39679235 -0.32225206 0.16260824 0.28611508 -0.05125596 -0.4677914 -0.17638631 0.26237673
-0.11138211 -0.10620652 -0.3515463 0.05613697 -0.24689358 0.1850679 -0.2325979 -0.36026183
0.4941175 0.1542552 0.39389873 0.17960976 -0.10455867 -0.65521336 0.25972447 0.12577645

lstm.weight_hh_l0 f4 [48, 12]
00000000: 182b 02bb eb50 8fbe 3250 323e 6eab 9e3e
00000010: c53e 19bd d9d9 ee3d 3e64 2cbd 7249 093e
00000020: c41d b8be e267 953e 62ca 95be 1fff 1f3e
00000030: c8ed 983e 7d97 babe d424 253e 57e7 90bd
00000040: f202 8bbe 39f7 0cbf 2c90 40be 7ae7 8d3e
00000050: f429 e7be a43e 743d 341c b5be 246d c63e
00000060: 582e 943e 607f 1dbe 8f3a 373d b99d a63e
00000070: 4545 dfbe b87d 3a3d ae13 b73e 20c5 85be
00000080: 271e e1bc 9fd2 3abf 1860 d7be a30b 63bd
00000090: 1a7a 81bc 034c 91be ae1a 203e 50f2 46be
000000a0: a700 6d3e 64f3 903e 0699 f53d 1f39 91be
000000b0: 9499 14be 8c9f a63d cafd 1abe 80af 4bbe
000000c0: 6fdd cebe fc00 87be e83f 953d 853a 023d
000000d0: ecf3 3dbe 4a44 0b3e fa00 85bc c5a1 20be
000000e0: acaa d9bd c2d7 aabe 3030 cfbe 1652 8d3e
000000f0: b917 063f f8db adbd 64c4 b63e fe11 ca3e
00000100: 8812 89be 23f2 7a3d 45df 9e3e bd80 d13e
00000110: 138c c4bd 5363 073f 3e8b 4cbe f430 453e
00000120: dbd1 913e 4213 963e 2c98 883e 90dc ea3e
00000130: ed09 5dbe 3f68 ba3d a3e9 15be 78ed 33be
00000140: 1e08 6bbe 37b4 7c3d 4627 5fbe 746b dbbc
00000150: dccf e4bc 59cf 27be 8857 823e 67f4 6e3e
00000160: 42b3 77be c4e0 cbbe 7bac 043d 250c 56be
00000170: a7d0 6fbe e2d7 17be 4d7b 2cbe 9e15 823e
00000180: bbae 5bbe f48d 93be 9a9a 493d eb3e 3a3d
00000190: 5d44 29be e750 56be 1008 92be 2a27 323d
000001a0: 0bc2 7b3d 1641 b8be b9b2 c3be 7a60 45bc
000001b0: 425d 043e fe25 e4bd c953 c3bd 97d9 39be
000001c0: 854a 1a3f 7f00 bf3d a5c1 a9bc 6841 943d
000001d0: 1aea 41be 32ea c9bd 76d1 8e3e 1376 afbe
000001e0: de0b 9fbc e244 c5be 780b 353e 1018 c0be
000001f0: 7a6b f23d 0b30 0ebf 5b84 c0be abf6 de3b
00000200: e7b3 90be e024 423e 3d46 e6be 9ca0 c83e
00000210: 008d f1bd aa00 b43d 40d0 053e ee96 41be
00000220: c8bb bd3e cc55 283d c31c 9d3e cc39 08be
00000230: 6e4b f6bd 0db4 c93e ea37 87bd 8949 1f3e
00000240: 4408 aa3e 906e 02bf b626 20bd c793 14bd
00000250: 906e 7a3e dd18 cb3e 83d2 aebe 0cf0 48b9
00000260: 5c97 86be 9c6d 13be d75b bbbe de95 8dbe
00000270: 131a c83e 1220 15be 99f9 0a3f a293 013f
00000280: 32af 1fbe 33fe 81be c36d 443d 2873 daba
00000290: 1de6 bdbe e9e7 debd 2314 37bd cd2b 4ebe
000002a0: ff60 e43d 00aa 5cbe b974 e63e c920 803e
000002b0: 48ec 21be d109 80be 38dc 263d bd7e b6bd
000002c0: 99d9 79bc 9ec1 8dbd 0bc1 91be a9b5 ae3c
000002d0: 24f0 c03e 41c3 2ebe 5be5 0d3e 0fe3 05bf
000002e0: 3527 0ebf 1457 cebd aea3 b6bc 28e4 403c
000002f0: 2a22 e7be ed2e 83bd e48e 42be 5977 433e
00000300: 92b2 7e3e 3c65 9ebe 3bef bb3e 539f a7be
00000310: c60f 26b9 c3f2 b7bd 6d75 5ebc c2e1 3fbe
00000320: 033c b9be 8709 85be 43da adbe d1e3 8abd
00000330: 3ab3 903e 2850 3fbe fdfd c53c 2082 833e
00000340: 3336 dbbe 83d7 4dbd b799 b0bd 2775 313d
00000350: 8372 a3be 78a1 0e3e 66c8 803e 3a77 9e3d
00000360: 9fda a23e 3794 74be 4817 ec3e ac37 aabd
00000370: 257f f8be 5bdd c7be da1a b4be 2bd7 46be
00000380: 6488 13bf 2139 403e 95e9 9dbe 119d 973d
00000390: 55f8 d03e 13d6 dbbe f201 523e 342c c2bd
000003a0: 2700 e6bd 0404 f3be 41dd a9bd 9df7 87bd
000003b0: e8a8 00bf bf2c 3fbe 4cd0 90be 0607 04be
000003c0: cd17 37be e648 533d fe54 813e ba4e 00be
000003d0: 06c0 41be a520 ea3c 8534 d53d 5129 643d
000003e0: b9ce d1be eb9c dabe 3a50 d9be 35c2 b03e
000003f0: 0fe4 dbbd 25d5 19bd 3722 cd3e b4ad bfbc
-0.0019862112 -0.27991423 0.17413405 0.30990165 -0.037413377 0.11662645 -0.042087786 0.13406923
-0.3596021 0.2918082 -0.29255968 0.15624665 0.29868913 -0.364437 0.1612733 -0.070753746
-0.27150685 -0.5506473 -0.18804997 0.27715665 -0.45149195 0.05963005 -0.3537308 0.38755143
0.28941607 -0.15380621 0.04473358 0.32542208 -0.43607536 0.04553005 0.35757202 -0.26126957
-0.027480198 -0.7297763 -0.420655 -0.05543102 -0.015805293 -0.28378305 0.15635177 -0.19428372
0.2314478 0.28310692 0.119920775 -0.28363892 -0.1451171 0.081359 -0.15135875 -0.19891167
-0.40403315 -0.2636794 0.0728758 0.03179409 -0.1855008 0.13600269 -0.016235817 -0.1568671
-0.10628256 -0.33367735 -0.40466452 0.2760169 0.5237995 -0.08489221 0.3569671 0.39466852
-0.2677195 0.061266076 0.31029716 0.40918532 -0.095970295 0.5288593 -0.19974992 0.19256955
0.2848042 0.29311568 0.26678598 0.458714 -0.21585818 0.091019146 -0.14639907 -0.17571056
-0.22952315 0.061695304 -0.21792325 -0.026784636 -0.027931146 -0.1638769 0.25457406 0.2333542
-0.24189475 -0.3981992 0.032391053 -0.2090307 -0.23419438 -0.14828447 -0.1684391 0.25407118
-0.21453373 -0.2881924 0.049219705 0.04547016 -0.16529985 -0.209293 -0.28521776 0.04349438
0.06146435 -0.35987157 -0.38222292 -0.012046928 0.129262 -0.11140059 -0.09537465 -0.1814941
0.6026996 0.093262665 -0.02072222 0.07239038 -0.18936959 -0.09859122 0.2789418 -0.3426977
-0.019414838 -0.38529116 0.17680156 -0.37518358 0.11836906 -0.5554206 -0.3760098 0.0068043075
-0.28262255 0.18959379 -0.44975463 0.39185035 -0.11794472 0.08789189 0.13067722 -0.18905231
0.37057328 0.041097447 0.30686006 -0.13303298 -0.12026106 0.3939518 -0.06602462 0.15555395
0.3320943 -0.50949955 -0.039099418 -0.036273744 0.24456239 0.39667407 -0.34144983 -0.00019162911
-0.26287353 -0.14397281 -0.36593506 -0.27653402 0.39082393 -0.14563015 0.54287106 0.50615895
-0.15594175 -0.2538925 0.04795624 -0.0016666399 -0.37089625 -0.10884077 -0.04469694 -0.20133896
0.11151313 -0.21549225 0.45010927 0.25025013 -0.1581279 -0.2500749 0.04073736 -0.08910892
-0.015249633 -0.06921695 -0.28467593 0.021326857 0.37683213 -0.17066671 0.13857023 -0.5229959
-0.55528575 -0.100752026 -0.022294845 0.011773147 -0.45143253 -0.06405435 -0.18999821 0.19088496
0.24872807 -0.3093661 0.36705956 -0.32738742 -0.0001583687 -0.0898185 -0.013577801 -0.18738464
-0.36178598 -0.2598383 -0.33955583 -0.06781734 0.2826174 -0.18682921 0.024168963 0.25685215
-0.42814788 -0.050254356 -0.08623069 0.043324616 -0.31923303 0.13928783 0.25152892 0.077375844
0.3180742 -0.23884664 0.46111512 -0.083114 -0.48534504 -0.39036068 -0.35176736 -0.19418018
-0.5762999 0.18771793 -0.3084227 0.07403005 0.40814462 -0.42936763 0.20508555 -0.09481087
-0.11230498 -0.47464 -0.08294154 -0.06639025 -0.5025773 -0.18669413 -0.28283918 -0.12893304
-0.17880173 0.051583193 0.25260156 -0.12530032 -0.18920907 0.02858002 0.10410408 0.055703465
-0.4097803 -0.42697844 -0.4244402 0.34523168 -0.10736858 -0.037556786 0.40065166 -0.023398258

lstm.bias_ih_l0 f4 [48]
00000000: c981 eb3e b01a 853e 3e0b a3bd f91f 3dbd
00000010: 0974 7fbd 3859 1cbd 9f30 743e 781d 823c
00000020: d0c2 7d3e 3cc3 083d ceca 8f3e 3143 9abd
00000030: 4bb9 7b3e c8f3 ab3d 2fee 863e ae55 4a3e
00000040: 306a 9b3e dcbd 75bd 28ea 3f3e b097 f53d
00000050: 256a c13e 13ef fa3e 6fab 26bd 5d5e ba3e
00000060: 4522 5e3e fd55 c83d a6d3 943e 3c98 4f3d
00000070: 909c 1c3d 7daf 973e f7a8 993e 126a 9cbd
00000080: a5e1 223e d885 f13d 0cf5 84be c5af 37be
00000090: 3397 eb3e fb5a e73d cca4 b73d f59f 74bd
000000a0: f30b b5bc 38ed dd3e a8c2 1f3d 060b 8abd
000000b0: 48df 8c3e 5df3 8e3e 2299 793e 06bb ac3e
0.45997456 0.25996923 -0.07961129 -0.04617307 -0.06236652 -0.038171023 0.23846672 0.015883192
0.24781346 0.033389315 0.28084415 -0.07532347 0.24582402 0.08396107 0.26353595 0.19759247
0.30354452 -0.059995517 0.18741667 0.11991823 0.37776294 0.49010524 -0.040690836 0.36400118
0.2169276 0.09782026 0.29067725 0.05068229 0.038235247 0.29626074 0.30011722 -0.07637419
0.15906389 0.11793107 -0.25968206 -0.17938145 0.46013793 0.1129665 0.089669794 -0.05972286
-0.022100424 0.43345046 0.039003998 -0.06740384 0.275141 0.27920046 0.24374822 0.33736438

lstm.bias_hh_l0 f4 [48]
00000000: 50e1 9d3e ea15 ef3d aa3a 923e 131c abbc
00000010: b405 083e aeab ec3e 6cb4 263e c3fc 523e
00000020: dbd5 d4bd 8df4 de3d 1d9a de3e 32f8 bc3e
00000030: 5859 96bd 76d4 bc3c 2fdb 4a3e adea 003e
00000040: d660 663e f55c e2bd f537 d03d 2dd1 523e
00000050: 1f28 4a3e 9dd1 8ebc 1190 d2bd b8ff c03e
00000060: 0372 50bb fb53 3dbd 893b ae3b 9e2f 44bd
00000070: f36e 63be f050 1bbe 5690 bcbd 47cf 55bc
00000080: 6412 92be bd77 f1bd d672 30bc 41ba a83e
00000090: f4a6 743e 3cfd 763e cb05 473e 0b3f 993d
000000a0: c43b 8bbd 0cdd 6c3e 4d8c c4bb 57ce 8b3d
000000b0: 5e77 ae3e ea4c 0abd 4628 b93e f03e 423e
0.30835962 0.11674102 0.28560382 -0.02088741 0.13283426 0.4622473 0.16279763 0.20604233
-0.10392352 0.10886488 0.43476954 0.36908108 -0.0734126 0.023050528 0.19810174 0.12589522
0.22497877 -0.110528864 0.10166923 0.20587607 0.19741867 -0.017433936 -0.10281385 0.37695098
-0.0031806238 -0.04622267 0.0053171557 -0.047896974 -0.22210293 -0.15167594 -0.092072174 -0.013049907
-0.28529656 -0.117904164 -0.0107695665 0.329546 0.23891813 0.24120039 0.19435804 0.074827276
-0.06798509 0.23131198 -0.0059981705 0.068264656 0.34075445 -0.033764757 0.3616354 0.18969321

lstm.weight_ih_l1 f4 [48, 12]
00000000: 7915 b43e 4ba9 1bbd 56e7 873e fc77 93bc
00000010: a23a 5fbe e559 dabe 5892 32be 1000 7cbd
00000020: 511e 173e 9318 26be 618a 5ebe deaa 0dbc
00000030: fada 843e eab6 b6be b55e aebd c08e cdbb
00000040: 6265 5e3d 0c98 8dbd e87e dfbc b134 883c
00000050: 9837 d3be f204 fe3e 4019 a8be 6294 ea3d
00000060: de7b 21be 41d6 adbc 5645 ba3e 65e5 42be
00000070: 8d97 21be 0bc6 d2be a845 fdbd 272a 613e
00000080: 6e19 d6be ae5f b23e 6383 9abd fa3b d3bc
00000090: 50e5 b13d c395 133d 98cb f63e 15d0 843e
000000a0: b951 05be 5754 7cbe cd65 7ebe 26eb 763e
000000b0: 106d 88be 67fa 9fbe 623f f9bd a182 a53e
000000c0: c272 00ba 393b 96bd f949 b93e ca31 8e3e
000000d0: 0458 823c 2c9c aa3e 68b1 af3e 05b5 2cbe
000000e0: 766d a0be db73 1d3f 38a7 cabd 2de5 6f3e
000000f0: e28e ecbd df7b ec3d 43e6 833c 0f2a a939
00000100: e2e2 e03c ada7 393e f8df 403e 9a02 1fbe
00000110: fbfd 76be 9720 2a3d 74d4 90be 0b73 823e
00000120: c57e 623e 5d02 5cbd 7e34 213d 4421 553e
00000130: 1da5 3b3e 3a8c ff3d b49f 023e c4d5 5f3e
00000140: c602 3a3e 8706 07be 1177 37be 9e2c 0fbc
00000150: f2c9 783c af97 a2be 35ca 623d 8b30 24be
00000160: 5611 59bd 25cd 01be 76ac 643e a74f c6bd
00000170: c591 843b d29d 033f 8ee0 c0be 88d2 e53e
00000180: 9782 df3e a225 aebe 965e 503e 84cd 013f
00000190: eefc a23d a944 233e b45c 7dbe abe7 7fbd
000001a0: 13f5 55be ba5e 3b3d c0a5 cebe bc3d 2e3e
000001b0: 473f 4a3e 06e3 6abe 2252 453e 7bf9 ae3d
000001c0: ba17 fd3c a392 2b3e 10d0 873c d45f 193e
000001d0: 2907 b23c 59c3 003f 65a8 01be adf9 be3e
000001e0: f3aa 4f3e 7ceb d1be c1a5 d9bd 2ca1 983d
000001f0: a8cd 6dbd 730b 263d 780f 73bd b054 8e3e
00000200: f5cc 30bd 24dc b8bd b1bd 1e3e 6d02 953e
00000210: b57f a73e 03bf c43c cf89 b73d 3041 613e
00000220: 86ab 643e 02df 7f3c 0ddc df3e 2197 053e
00000230: d41a 353e 18fc 9a3e 8d26 ac3d 99ad 55be
00000240: f682 e23e 168c 81be 2d3c e13b 0df5 b83d
00000250: 8977 dfbe d114 88bc 3ae2 d83d de1c f83d
00000260: 23b3 b6be 09da 10bd 247b 8fbe 775e 13be
00000270: e0d6 0dbd f00a b0bd 048c 8a3d a530 fbbd
00000280: 09c3 a03e b748 63bb 4ec0 833e 965b 20be
00000290: ca97 313d a7c3 263f 33be c23c 40a5 98bb
000002a0: a370 f7bd 1027 edbe 25f4 933e 76b8 7fbd
000002b0: 1e35 10bf e61d e4be c6c5 84be e371 da3d
000002c0: 8f45 42bb 6787 a43e 1ffb c7be 3c56 973e
000002d0: 4ad8 803e 867e 41be 369b e93d b981 a03d
000002e0: d368 e2be 5615 133c 40d6 96bd 8e09 423e
000002f0: c51b 373d 5bd2 003e c137 b7be 5df9 bf3e
00000300: 40db a23d 70a0 203e 8f3b 90be dfd0 84be
00000310: 840c 953e 4649 86bc 1114 3cbd 80c0 923d
00000320: aa00 07be f495 f93e 2647 9c3c e27a f6bd
00000330: 8de0 ce3d 8117 6dbe c7e9 f1bc 49ab 753e
00000340: 9c28 2f3e c7d6 863e 272d cd3d 8144 2e3e
00000350: 8ec9 663e 0c31 973e 4dba 39be becc 863a
00000360: 5a9f 21be 3759 6dbc 319e c1be 5621 10bd
00000370: 802f 863e aa35 b7be 174d a7be 330b 37be
00000380: 6c02 ee3d 655a fd3d 4e1b 83be 3b62 e1be
00000390: 0e38 623d 743d 54be f35d 64be 0bff 1f3e
000003a0: fe91 743e b4b1 f3bd cddf 6abc 7015 72bd
000003b0: 88e1 423e 9b3c 8cbe 3cff c43d b445 3f3e
000003c0: 3c74 883e f9f8 0fbe 44dc 953c 36a3 ab3c
000003d0: d94e 8a3e 54db 63be edd2 a0be 015d 1cbb
000003e0: ff47 683e eb62 a33d a56e 303d fa92 82bd
000003f0: bd41 3abe 05c9 90be 1562 203f 062a 9fbe
0.35172632 -0.038003247 0.26543683 -0.018001549 -0.2179971 -0.4264671 -0.17438638 -0.061523497
0.14757659 -0.16220312 -0.21732475 -0.008646695 0.25948316 -0.35686427 -0.08514158 -0.0062731206
0.054295905 -0.06913766 -0.027282193 0.016626688 -0.41253352 0.49613148 -0.32831764 0.11454083
-0.15769908 -0.021220328 0.36381024 -0.1903282 -0.15780468 -0.4116672 -0.123668015 0.21988736
-0.41816276 0.34838623 -0.07544591 -0.025785435 0.08686316 0.036031496 0.48202205 0.25940004
-0.13019456 -0.24641548 -0.24843521 0.2411314 -0.26645708 -0.3124573 -0.121702924 0.32326224
-0.0004899913 -0.073355146 0.3618925 0.2777236 0.01591111 0.33322275 0.34315038 -0.16865928
-0.31333512 0.61504906 -0.09895176 0.23427267 -0.1155069 0.11547064 0.016101008 0.00032265528
0.027451936 0.1813037 0.18835437 -0.15528336 -0.24120323 0.041534986 -0.2828709 0.25478396
0.22118671 -0.05371319 0.0393567 0.20813471 0.18324704 0.12477918 0.12756234 0.21858889
0.1816512 -0.13186084 -0.17916514 -0.008738665 0.015184866 -0.3175635 0.05536862 -0.16034143
-0.05299505 -0.12675913 0.22331414 -0.09683161 0.0040456974 0.5141269 -0.37671322 0.44887185
0.4365432 -0.34013087 0.20348582 0.50704217 0.07958399 0.1594416 -0.24742395 -0.062476795
-0.2089427 0.045744635 -0.40360832 0.17015737 0.19750701 -0.22938165 0.19269612 0.085436784
0.030895103 0.16755156 0.016578704 0.14977962 0.02173193 0.50298077 -0.12661894 0.37299863
0.20280056 -0.40999973 -0.10627318 0.07452616 -0.058057457 0.040538263 -0.059340924 0.27798986
-0.043164212 -0.090263635 0.15502049 0.29103413 0.3271462 0.024016863 0.08961832 0.21997523
0.22331056 0.015617134 0.43722573 0.13045932 0.17686015 0.30270457 0.084057905 -0.20867004
0.4424054 -0.2530219 0.0068736286 0.09031115 -0.43645886 -0.016611489 0.10590024 0.12114881
-0.35683545 -0.035364185 -0.28023636 -0.14391504 -0.03462875 -0.08595836 0.06764987 -0.122651376
0.313988 -0.0034680793 0.25732654 -0.15659937 0.043357648 0.6514229 0.023772335 -0.004658371
-0.120820306 -0.46318865 0.28897205 -0.062431775 -0.5633105 -0.4455406 -0.2593214 0.106662534
-0.002964351 0.32134554 -0.39058778 0.2955798 0.25165015 -0.18895921 0.11406557 0.07837243
-0.442206 0.008977255 -0.07365084 0.18948957 0.044704217 0.12580244 -0.35784724 0.37494937
0.07951975 0.15686202 -0.2817044 -0.25940606 0.2911111 -0.016392361 -0.045917574 0.07165623
-0.13183847 0.48747218 0.019076895 -0.12035157 0.101014234 -0.23153497 -0.029530419 0.23991121
0.17105335 0.26335737 0.10018378 0.1701832 0.22537825 0.29529607 -0.18137474 0.0010284407
-0.15783444 -0.0144866025 -0.37816003 -0.03518804 0.26208115 -0.3578313 -0.32676002 -0.17875366
0.11621556 0.12370757 -0.2560677 -0.44020256 0.05522924 -0.20726568 -0.22301464 0.15624635
0.23883817 -0.118991286 -0.014335585 -0.059102476 0.19031346 -0.27389988 0.096189946 0.18678933
0.2665118 -0.1405982 0.018293507 0.020951848 0.2701328 -0.22251636 -0.31410924 -0.0023859146
0.22683714 0.079778515 0.04307427 -0.0637569 -0.1818914 -0.28278366 0.6264966 -0.3108675

lstm.weight_hh_l1 f4 [48, 12]
00000000: ba6a 65ba adb9 293e 7125 3fbe 4fe8 c43c
00000010: 1707 07bd 780a 683e 9cd9 54bd 3927 84be
00000020: 75d1 f9bd 8cd8 b13d 08cb 063e fea7 a43e
00000030: 709a 3c3d 4343 84be 9b23 c53e 7171 bdbe
00000040: 90f3 1abe b033 f63d 4e9a b93b c6af 3abd
00000050: df3a cebd fa7f 20bd 73cb 4d3d 17fc c9bd
00000060: a370 5d3e 76fb a53d dfc2 e83d 3bfe 39bd
00000070: d060 7e3e 4f5b 023e f6e3 07be 0f97 74be
00000080: 4af5 d13d 384f 583a 9a9d e73e 3b58 7a3e
00000090: 4d00 b53d 6749 e9be add2 dd3e d5a6 16be
000000a0: 4b43 babe 3abb f53d a427 7d3e 60b4 16be
000000b0: cf35 253e 636f 963a c2a6 27bd 9d2c 9bbe
000000c0: 59ba d6bd 4e76 d73d e1aa 673e 385c 96bc
000000d0: 5d0f 69bd 5eed a53e ebde 073e 6c88 92be
000000e0: 96cd a33d 57f2 77be a167 a6bc 0c9a f43d
000000f0: 38db 7f3e 5c79 2f3e 28f7 d4bd 76f3 02be
00000100: 2812 073c d6d2 d73c 8564 22be 10a6 43be
00000110: 85a4 5e3e 5d41 6fbe 7ee9 cfbd 7cbe 073e
00000120: 3e89 243e 5fc0 713e 6034 6b3e ef67 94be
00000130: 79e6 703e ce5f 173c 8e17 973e 24ce 24be
00000140: 7d41 203e 846b 7abe 1f3d b2be 89c1 fdbd
00000150: 1236 cc3e 6b69 44bd 011a de3d 1350 e6be
00000160: d6de 8bbd 8fe6 0ebe a03b 683e 299d c0be
00000170: b2ed 2d3e 0265 e3bd a6cb 6b3e febd 9cbe
00000180: 0fda 04be 105b b0bd e87a 74bd bffc f43d
00000190: 4779 99bd be60 4cbe 3b5f 2abe c4d4 b2be
000001a0: 7e2c 013e a106 3e3d 73ef 633e 2f2f 903d
000001b0: cdb2 e03e 598c 193d 7493 9c3e 03e0 793d
000001c0: 73bf a13e 359a 9ebe 805c 5a3d 0ac5 473e
000001d0: 2c1c 9a3e b84d e6bd 093e debc eda3 433d
000001e0: f46a e6bd 33d4 9dbe 50ee 9e3e f2a5 08bd
000001f0: adcd eebd 1001 8d3d 6d94 e1bd d21f c9be
00000200: 442b e53c 89b2 203e 516d 6c3e 1c26 903e
00000210: 473e af3e 3193 3e3e 8d89 9b3e 00e5 0ebc
00000220: 69b8 643d 9ba2 183e e827 a13c 3376 543e
00000230: 36f1 703d ff35 213e f532 613e bf62 143c
00000240: fc6c a0bd 0f2f 19be 8c25 11be 781c 2dbe
00000250: 0474 973e b7eb 3b3e 5d88 9e3c 997b 95bd
00000260: 79ba c5bd bda8 93be 6b22 b63e 9711 a53c
00000270: 7849 6d3e 4957 ed3d 5926 8dbe cce8 07bd
00000280: 2e40 8a3e 342f 0abe 8fc3 21be 18b8 573c
00000290: bda1 35bc 1023 83bc 0ec0 ae3c 657b d53d
000002a0: 6901 07be a1f7 ce3c 9e56 ca3e ef45 c2be
000002b0: ccda a9be 9f0c 4cbe 99d9 363e 15e2 d3be
000002c0: 29c6 00be c841 dbbe 2eee 1ebd 6e85 1cbe
000002d0: 8837 cebb b1bb 493c a848 9a3d cec5 84be
000002e0: e8ce 28be 5014 bc3d a402 b93e 3cb0 57be
000002f0: 6e82 4a3e 7744 aabe 3a0c e33d be54 13be
00000300: 5395 69bd 157b e33d ffab fbbd 5517 2a3e
00000310: 3bff 883e 964f 423e a92f 0bbe 7fa1 5d3c
00000320: d7f4 91be 0598 abbd 8c5f 113e eef8 563e
00000330: 6a36 c43e 5ae2 57be 275a b5bd 7c2b b63d
00000340: 0dc1 b23d 501b 2ebe f54b 02bb a224 10bd
00000350: 14f0 57be a81e 63be ff21 e53c c402 903e
00000360: 0bec b73d 80a3 743d 227a 6cbe 5593 3dbe
00000370: 2557 cdbd f7d7 2a3e d1af 0cbe 8f2f 47be
00000380: cf1c 8ebd b551 3b3e b5b9 b1bd d48b 493e
00000390: 0292 3abe 5c6e 81bc d4ab 8dbe c38f 1dbd
000003a0: 6dce 9fbd 8ce7 38bd 1d59 66be b71a 52be
000003b0: 7788 19be 61fc fe3d a4a9 cdbe c07d 9dbd
000003c0: eaca ac3d adf4 ba3d c465 bd3c 2022 b2bd
000003d0: 07f8 74be ecc0 acbd b403 99be 3d9d 41be
000003e0: d295 e83d 5879 a43e ad1b 4dbe a11e 63be
000003f0: d46e 803e e2f7 5abc 7edb f53d 452a 8cbe
-0.000875156 0.16574736 -0.18666627 0.024036555 -0.032965746 0.22660244 -0.05196534 -0.25811175
-0.12198154 0.08683881 0.13163388 0.32159418 0.04604572 -0.25832567 0.38503727 -0.3700061
-0.15131974 0.12021577 0.0056641465 -0.045577787 -0.100698225 -0.039184548 0.050242852 -0.098625354
0.21624999 0.08104603 0.11365294 -0.04540847 0.24841619 0.12730144 -0.13270554 -0.2388575
0.10251863 0.00082515506 0.45237428 0.2444772 0.08837948 -0.45563814 0.43324795 -0.14712079
-0.36379465 0.11998601 0.24722153 -0.14717245 0.16133808 0.0011477288 -0.040930517 -0.30307475
-0.10484762 0.10520612 0.22623779 -0.01835452 -0.056899417 0.3240766 0.1326863 -0.28619707
0.07998197 -0.24213539 -0.020313086 0.119434446 0.24985969 0.17136139 -0.10398704 -0.12788185
0.008244075 0.026345652 -0.15858658 -0.19106317 0.21742447 -0.23364778 -0.10151957 0.13256258
0.16067979 0.2360854 0.22969198 -0.28985545 0.23525418 0.00923915 0.29510158 -0.16094261
0.15649982 -0.24455076 -0.34812257 -0.123904295 0.39885002 -0.047952097 0.108448036 -0.44982967
-0.06829612 -0.13955139 0.22678995 -0.37619904 0.16985205 -0.1110325 0.23026904 -0.30613703
-0.12973808 -0.08611119 -0.059687525 0.1196227 -0.07493835 -0.19958779 -0.1663789 -0.34927952
0.12614629 0.04639304 0.22259311 0.070402496 0.43886414 0.03748736 0.30581248 0.06100465
0.31591377 -0.30977026 0.05331087 0.19508758 0.30099618 -0.112452924 -0.02712919 0.047763754
-0.112508684 -0.30825958 0.31041193 -0.033361383 -0.11660323 0.06884968 -0.11014638 -0.3928209
0.027974732 0.15693106 0.23088576 0.28154075 0.342272 0.18610837 0.3037838 -0.00872159
0.05583993 0.14905779 0.01967235 0.20748214 0.058823787 0.15743254 0.21992095 0.009056746
-0.07833287 -0.14959358 -0.14174479 -0.16905391 0.295807 0.18351637 0.019352132 -0.07298965
-0.096547075 -0.28839675 0.35573134 0.020149989 0.23172557 0.11588914 -0.2756832 -0.033180997
0.2700209 -0.13494569 -0.15797256 0.01316645 -0.011085925 -0.01600793 0.021331813 0.10423926
-0.13184132 0.025264563 0.3951921 -0.3794398 -0.3317474 -0.1992669 0.17856444 -0.41383424
-0.12575592 -0.42823625 -0.038801365 -0.15285274 -0.006293241 0.0123128155 0.07533389 -0.25932163
-0.16485178 0.09183562 0.36134827 -0.21063322 0.19776317 -0.3325536 0.110863164 -0.14387795
-0.057027172 0.111074604 -0.12288665 0.16610463 0.26757225 0.18975672 -0.135924 0.013527273
-0.2850711 -0.08378605 0.14196604 0.20993397 0.38322765 -0.2108244 -0.08855086 0.08895013
0.08728228 -0.17002606 -0.00198817 -0.035191186 -0.21087676 -0.22179663 0.027970312 0.2812711
0.089805685 0.05972624 -0.23093465 -0.18513234 -0.10026387 0.16683947 -0.13738944 -0.19451736
-0.069390886 0.18292888 -0.08677999 0.19682246 -0.1821976 -0.015799694 -0.27670157 -0.03846718
-0.078030445 -0.045142695 -0.22494932 -0.20518003 -0.14993463 0.12450481 -0.40168488 -0.076900005
0.0843714 0.091286995 0.023119815 -0.08697915 -0.2392274 -0.084352344 -0.29885638 -0.18907638
0.11356701 0.32123828 -0.20030089 -0.22179653 0.25084555 -0.013364764 0.120047554 -0.27376

lstm.bias_ih_l1 f4 [48]
00000000: 6625 a43d 5f8d 12be f01a ca3d 2e31 2f3e
00000010: f717 2ebe 3167 b73e 3d9a 6c3e 8964 d0bc
00000020: 7fd3 ec3d 8fe7 f73e 119f 62bd 462d 78bd
00000030: 3aae 9c3e 2091 813d f338 713e 11d8 6f3e
00000040: b5f4 15be 0c5e 9dba ab6c 493d 5828 18be
00000050: 7c5a 343e ddf6 983c a7ac b6bc 70bd 913d
00000060: f518 3a3e 0494 cabc 3981 933e dc32 a5be
00000070: f493 5dbd 3c26 75be 974e 363d d607 a4bd
00000080: e4ae 853e 1f93 1d3e 3c39 27bd 241c 1dbe
00000090: 20ab 9f3e 9902 c73e ebc3 9a3e 1f11 2c3d
000000a0: 3eb9 1cbe 2951 4f3d a5f7 b43e c710 8f3e
000000b0: e309 d13d 6395 a43e dcfd 993d 3b7d f5bd
0.08014946 -0.14311741 0.09868419 0.17108604 -0.1700133 0.35820916 0.23105712 -0.025438564
0.11563777 0.48418853 -0.05532748 -0.06059005 0.30601674 0.063265085 0.2355688 0.23422267
-0.1464413 -0.0012006178 0.0491759 -0.1485914 0.17612642 0.018672401 -0.022299124 0.071162105
0.18173583 -0.024728782 0.28809527 -0.32265365 -0.054096177 -0.23940367 0.044508543 -0.08009307
0.26109993 0.15388153 -0.040826067 -0.15342766 0.31185246 0.3886917 0.302276 0.042008515
-0.1530504 0.05061451 0.35345188 0.27942488 0.10206964 0.32145223 0.07519123 -0.119867764

lstm.bias_hh_l1 f4 [48]
00000000: 8e0c 9c3d d007 643e 0c2e 8a3e 18c5 8b3c
00000010: 9b73 b03e 253e acb9 6a5b c3bd fa46 f03d
00000020: 673d f4bd dc71 353e cd2b f93c 160a 513c
00000030: 1d82 6e3e 4d77 89be 9242 a73e 67bc 163e
00000040: 20de 8dbe c1b8 1b3e 502b e0bc b470 413e
00000050: e19d 97be cfb4 293e 17e8 cfbd 155a 45be
00000060: e124 113e 6051 1bbe 9735 c53d c8a4 01be
00000070: 5a9a ea3d eca0 90bd 7d98 c6bc a8d0 ad3d
00000080: c07a 073e ef7c 92be da0e 84bc a9ec 7d3e
00000090: d339 793e 479a c9bc 8079 e9bd b2e1 45bd
000000a0: cb9c 753d 1f9a 753e b0ea 6f3d d115 cc3e
000000b0: 7538 0a3e 462c c13e de85 0cbe 1779 33bc
0.07619582 0.22268605 0.26988256 0.017061755 0.344632 -0.00032852698 -0.0953892 0.11732288
-0.11925774 0.17719215 0.030416394 0.012758752 0.23291822 -0.26848832 0.32667977 0.14720307
-0.2770853 0.15207197 -0.027364403 0.18890649 -0.2961264 0.16572879 -0.101516895 -0.19272645
0.14174224 -0.15167761 0.09629362 -0.12660515 0.114552215 -0.070619434 -0.024242634 0.08487064
0.13230419 -0.28610942 -0.016120363 0.2479731 0.24338464 -0.024609698 -0.114001274 -0.048310943
0.059963983 0.23984574 0.058573425 0.39860395 0.13498099 0.3772909 -0.13722941 -0.010954163

linear.weight f4 [1, 12]
00000000: 3138 33be 278e a33e c689 35be 176f b73d
00000010: 97f3 8a3e b373 863e 235f 4dbe 4422 713e
00000020: 5953 42be 1645 d23d a3ee 953e 9220 833e
-0.17501904 0.3194439 -0.17728338 0.089567356 0.2713897 0.26260146 -0.20055823 0.23548228
-0.18977107 0.10267083 0.29283628 0.25610787
