nn_16Sec_2642420-8079.pt (torch_old, 9566 bytes, 9 tensors)

lstm.weight_ih_l0 f4 [48, 1]
0	0x3e7f305b	0.2492079
1	0xbd9b8eff	-0.07595634
2	0xbe330dd4	-0.17485744
3	0x3d3ed15e	0.046586387
4	0xbe3ecfe3	-0.1863399
5	0xbe847101	-0.25867465
6	0x3ea84c17	0.32870552
7	0xbe82c61e	-0.25541776
8	0x3e5eb6bc	0.21749395
9	0xbed03dd5	-0.40672174
10	0xbbafff2c	-0.005370995
11	0x3ef04bfc	0.4693297
12	0x3d3e9a8d	0.04653411
13	0xbdac039e	-0.083991274
14	0xbf074376	-0.5283731
15	0x3e17ef63	0.14837413
16	0xbd8f423e	-0.069950566
17	0xbf091e81	-0.5356217
18	0x3d239551	0.03993732
19	0xbcca7496	-0.024713796
20	0x3de82f47	0.113371424
21	0xbe6aa401	-0.22914125
22	0x3df13479	0.117775865
23	0x3ef13aca	0.47115165
24	0x3eb403d4	0.3515917
25	0x3c63082c	0.013856929
26	0xbec3869f	-0.38188645
27	0xbe80d39c	-0.25161445
28	0x3d8ed1fc	0.06973645
29	0x3e899800	0.2687378
30	0x3f12d438	0.5735507
31	0x3ee1ecdc	0.44126022
32	0xbeb9997b	-0.3624991
33	0xbe51d233	-0.20490341
34	0xbe8493ec	-0.25894105
35	0xbea766d9	-0.32695654
36	0x3da81c44	0.08208516
37	0xbe02fd48	-0.12791932
38	0xbec8b0db	-0.3919743
39	0x3eca26af	0.39482638
40	0xbe8b85d2	-0.27250534
41	0xbed4aa3d	-0.41536132
42	0xbdaf00c7	-0.0854507
43	0xbe4c7672	-0.19967058
44	0xbdbf26d8	-0.09333581
45	0xbddc9cbd	-0.10772083
46	0x3e2e8cfb	0.17045967
47	0x3e3123a3	0.1729875

lstm.weight_hh_l0 f4 [48, 12]
0	0xbeb59211	-0.35463002
1	0x3e0fdc78	0.14048946
2	0xbe8720a5	-0.26392093
3	0xbdc2ea3a	-0.095173314
4	0xbe0dfa7c	-0.13865083
5	0x3e1e6b7c	0.1547069
6	0x3eb5d039	0.35510424
7	0xbea08f82	-0.31359488
8	0xbe0328bf	-0.12808512
9	0xbda92c26	-0.08260374
10	0xbe42c80c	-0.19021624
11	0xbe5e9231	-0.21735455
12	0x3e1a777b	0.1508464
13	0xbe62e09f	-0.22155999
14	0x39fa67b8	0.00047760992
15	0xbd019819	-0.031639192
16	0xbea42c49	-0.32065037
17	0xbec38d96	-0.3819396
18	0x3d03b277	0.03215262
19	0x3d42f478	0.047596425
20	0xbe2c2bf1	-0.16813637
21	0x3dbb80e6	0.09155445
22	0x3dd7bfa3	0.10534599
23	0xbd5391b8	-0.05165264
24	0x3e81c009	0.25341824
25	0xbee650ca	-0.44983512
26	0xbe79baba	-0.24387637
27	0xbe77ab75	-0.241865
28	0xbf3ba148	-0.7329297
29	0xbe795523	-0.24348883
30	0xbe2fac10	-0.1715548
31	0xbf0a52e3	-0.54032725
32	0xbed7eaf0	-0.4217143
33	0x3d95994f	0.07304632
34	0xbe6ea31e	-0.23304412
35	0x3ecce909	0.40021542
36	0xbe340c1a	-0.17582741
37	0x3dde51d8	0.10855454
38	0x3e3369a1	0.17520763
39	0xbea59d07	-0.32346365
40	0xbe7ce49e	-0.24696586
41	0xbe96537d	-0.29360572
42	0x3e70aa75	0.23502524
43	0xbe5af58e	-0.21382734
44	0xbdcc78a5	-0.099839486
45	0xbd4ef19f	-0.050523397
46	0xbe2b0579	-0.16701306
47	0x3e2262cb	0.15857999
48	0x3e21f3bc	0.15815634
49	0xbeb8e657	-0.36113235
50	0xbd81fc61	-0.063469656
51	0x3dbb5aef	0.091482036
52	0xbe59da8d	-0.21274777
53	0x3e5a8091	0.21338107
54	0x3d905625	0.07047681
55	0xbe906f72	-0.28210026
56	0xbe1861d7	-0.14881073
57	0x3e28cf19	0.16485251
58	0x3de4acc6	0.111657664
59	0xbe038e05	-0.12847145
60	0x3ea392a2	0.3194781
61	0x3e13cb1d	0.1443295
62	0xbb34a4ea	-0.0027564117
63	0x3db3c110	0.08777058
64	0xbe1e5511	-0.15462138
65	0xbe97e656	-0.2966792
66	0xbeb876ad	-0.36028042
67	0xbedcb52b	-0.4310697
68	0x3e3c20ec	0.18371934
69	0x3bcdd9d7	0.006282072
70	0xbe29cea2	-0.1658273
71	0xbe5f7a40	-0.21823978
72	0x3defdfdf	0.11712622
73	0xbe66a68a	-0.22524467
74	0xbbc77031	-0.0060863723
75	0xbe06e318	-0.13172567
76	0xbecc5155	-0.399058
77	0xbe730f45	-0.23736294
78	0x3de6974a	0.11259325
79	0xbf0a19e3	-0.5394575
80	0xbf032020	-0.51220894
81	0x3cd9fee2	0.026610795
82	0xbc9246d2	-0.017856035
83	0xbec71ebd	-0.3889064
84	0x3d8551b5	0.06509725
85	0x3dd594f6	0.10428803
86	0xbdbaeea1	-0.09127546
87	0xbef541c9	-0.47901753
88	0xbeb88c35	-0.3604447
89	0x3e753b8c	0.23948497
90	0x3ec687a6	0.38775367
91	0xbee94fc5	-0.45568672
92	0xbe6c08af	-0.23050188
93	0xbec6d231	-0.38832238
94	0xbd6a11c8	-0.057145864
95	0xbea5e031	-0.32397607
96	0xbe108168	-0.14111865
97	0xbe135617	-0.1438831
98	0xbe015631	-0.12630536
99	0xbda0519c	-0.07828066
100	0x3b7fe9f2	0.0039049354
101	0x3ea37d11	0.31931356
102	0x3c7a96a4	0.015294705
103	0xbe8e87e5	-0.27838054
104	0xbe90a9fb	-0.28254685
105	0xbe1f1333	-0.15534668
106	0x3d9e1589	0.07718951
107	0xbed63d02	-0.4184342
108	0x3e841c38	0.2580278
109	0xbee01115	-0.43763033
110	0xbec6d313	-0.38832912
111	0x3dea99d2	0.1145512
112	0xbeaf11ba	-0.34193212
113	0xbe2da2b2	-0.16956595
114	0xbc0c2101	-0.008552791
115	0xbe36c1b7	-0.17847334
116	0xbde7bb75	-0.113150515
117	0x3d9eeac0	0.07759619
118	0xbdf18185	-0.11792282
119	0xbe063626	-0.13106593
120	0x3f0d3fe6	0.55175626
121	0xbe9557db	-0.2916859
122	0xbebaa805	-0.36456314
123	0xbed14989	-0.40876415
124	0xbf131f4a	-0.5746962
125	0xbe009b9f	-0.12559365
126	0xbc5361ab	-0.012901704
127	0xbf376f6e	-0.71654403
128	0xbe29bd72	-0.16576174
129	0x3c1addbb	0.009452279
130	0x3e1487ed	0.14504977
131	0xbf161710	-0.5862894
132	0x3bfbe84a	0.007687603
133	0xbec85ec5	-0.39134803
134	0xbe48963e	-0.19588563
135	0xbd3c0f20	-0.04591286
136	0xbda560dd	-0.08075116
137	0xbd8831f0	-0.0665015
138	0x3e8beb8e	0.2732815
139	0x3db742d0	0.0894829
140	0xbdecf6ba	-0.11570497
141	0xbe5b317c	-0.21405596
142	0xbe665fc9	-0.22497477
143	0xbe0e9104	-0.13922507
144	0x3df3d9dc	0.11906788
145	0xbd811813	-0.0630342
146	0xbe9cb074	-0.30603373
147	0xbe420baf	-0.1894977
148	0xbd6f1179	-0.058366273
149	0xbe096a9b	-0.13419573
150	0x3da8c4c3	0.08240654
151	0xbef73411	-0.4828191
152	0xbeb47571	-0.3524585
153	0x3e967501	0.29386142
154	0x3dea7749	0.11448533
155	0x3dbf91da	0.09353991
156	0x3ee07dc1	0.43845943
157	0xbe3e8bb0	-0.18607974
158	0xbea99de1	-0.33128265
159	0xbd8aa6f5	-0.06770126
160	0xbdf210b5	-0.11819593
161	0xbe93b3f0	-0.2884822
162	0x3e28185a	0.1641554
163	0xbd85ff02	-0.065427795
164	0xbe9e1a56	-0.30879468
165	0x3d9af4d8	0.075662315
166	0x3d6025ad	0.05472343
167	0xbdb0bd75	-0.08629886
168	0xbe755feb	-0.23962371
169	0xbe4e005b	-0.20117323
170	0xbd285155	-0.04109319
171	0x3e561765	0.20907362
172	0x3d0e163c	0.034689173
173	0xbeb1ecf7	-0.34751102
174	0xbdc97983	-0.0983763
175	0xbd328c27	-0.04359069
176	0xbed06bd3	-0.40707263
177	0xbda9ee97	-0.082974605
178	0xbde73d75	-0.11291019
179	0x3f1a9395	0.6038144
180	0x3e6d6d55	0.23186238
181	0xbe65cf26	-0.22442302
182	0x3e1ab986	0.15109834
183	0xbeef05e5	-0.46684185
184	0xbe5ba555	-0.21449788
185	0xbe463064	-0.19354397
186	0x3ea737ef	0.3265986
187	0x3ec3aef8	0.38219428
188	0x3d3d987e	0.046288006
189	0xbe72881a	-0.23684731
190	0x3d49e93e	0.049294703
191	0xbded9eca	-0.11602552
192	0x3e84de40	0.25950813
193	0xbece585f	-0.40301797
194	0xbc926b68	-0.01787348
195	0xbef52ead	-0.47887173
196	0xbe7d53c8	-0.24738991
197	0x3ee2bdde	0.44285482
198	0xbe97e01e	-0.29663175
199	0xbf13e0cb	-0.5776488
200	0xbc02e875	-0.007989992
201	0x3e80b56e	0.2513842
202	0x3dcc1037	0.0996403
203	0x3d9e272c	0.07722315
204	0xbe0eedc7	-0.13957892
205	0xbec96424	-0.39334214
206	0xbe017831	-0.12643506
207	0xbe4f6eec	-0.20257157
208	0x3d8ac325	0.06775502
209	0xbe26bb12	-0.16282299
210	0xbe67a475	-0.22621329
211	0xbed63aaa	-0.41841632
212	0xbc976cef	-0.01848456
213	0xbc335b3d	-0.010947046
214	0xbe8d9bc6	-0.27657908
215	0xbe98dfcc	-0.29858243
216	0x3e9cc521	0.30619147
217	0x3dbd0cd9	0.09230966
218	0xbe80eabd	-0.2517909
219	0xbec1f136	-0.37879342
220	0xbdfb1b1f	-0.12261032
221	0x3dff90a0	0.12478757
222	0xbd7b4e2d	-0.06135385
223	0xbc0cc827	-0.008592642
224	0xbea746f4	-0.3267132
225	0xbec4c21d	-0.38429347
226	0xbefe57db	-0.49676403
227	0xbe00cd75	-0.12578376
228	0x3db54e87	0.088528685
229	0xbe4acfe9	-0.19805874
230	0x3ed9885a	0.4248684
231	0xbee3322f	-0.44374225
232	0xbe8fb4b1	-0.28067544
233	0x3ede5066	0.43420714
234	0x3e58c894	0.21170264
235	0xbf1fd0ce	-0.62427986
236	0xbe637af0	-0.22214866
237	0xbf5432f0	-0.82890224
238	0x3e32a931	0.17447354
239	0xbe79d7b2	-0.24398687
240	0xbe04a160	-0.12952185
241	0xbec8d5f2	-0.39225727
242	0xbe519920	-0.20468569
243	0xbe4cb468	-0.19990695
244	0x3e93fbf3	0.2890316
245	0xbe49310c	-0.19647616
246	0x3f061aa3	0.52384394
247	0xbd649ade	-0.055811755
248	0xbf03b036	-0.5144075
249	0xbe80918e	-0.2511105
250	0xbc7a8a82	-0.015291812
251	0xbed80e32	-0.4219833
252	0x3eef7408	0.46768212
253	0xbef4da96	-0.47823018
254	0xbed78e89	-0.42100933
255	0xbdac3b49	-0.08409745

lstm.bias_ih_l0 f4 [48]
0	0xbd7f3663	-0.062307727
1	0x3da15aaf	0.07878625
2	0x3ea9407d	0.33057013
3	0xbda11601	-0.07865525
4	0x3ebfdf96	0.3747527
5	0xbd76c2a1	-0.060244206
6	0x3d742b45	0.059611578
7	0xbbddef37	-0.0067729014
8	0x3ec0fe4d	0.37694016
9	0x3e1d058b	0.15334146
10	0x3d5cc8d5	0.053902466
11	0x3efd0944	0.49421132
12	0x3e1ec92f	0.15506433
13	0xbe51b900	-0.20480728
14	0x3d119929	0.035546456
15	0x3ca89faf	0.020583956
16	0xbdb2f45b	-0.08738013
17	0x3eafbc15	0.34323183
18	0x3d308d21	0.04310334
19	0x3e10d32d	0.14143057
20	0x3d19ddb5	0.037564952
21	0x3e51259a	0.204245
22	0x3e9c102b	0.30481085
23	0x3d8034e4	0.06260088
24	0x3e39fd65	0.18163069
25	0xbe32530f	-0.17414497
26	0x3d885223	0.06656291
27	0x3e18517b	0.14874832
28	0xbe6e98d8	-0.23300493
29	0x3db3eed7	0.087857895
30	0x3d8f09ba	0.06984277
31	0xbe17ef6b	-0.14837424
32	0x3d44502d	0.047928024
33	0x3e3ac1ed	0.1823804
34	0xbe130c7d	-0.14360233
35	0x3d1a71b4	0.037706092
36	0x3e3d9a4e	0.18515894
37	0x3e7f1945	0.24911983
38	0x3de5e4b9	0.11225266
39	0x3e2525d9	0.16127719
40	0x3e6c0fec	0.23052949
41	0x3daa3e1a	0.08312626
42	0x3dd896da	0.10575648
43	0x3ee1a46e	0.44070762
44	0x3de8518a	0.11343677
45	0x3b87058c	0.0041205343
46	0x3c3c6ce1	0.011500568
47	0x3dab07db	0.08351108

lstm.bias_hh_l0 f4 [48]
0	0x3db651b1	0.089023
1	0x3dc4f196	0.09616391
2	0x3d754f00	0.059889793
3	0x3d857d00	0.065179825
4	0x3ebb8bab	0.36629996
5	0x3d809392	0.06278147
6	0x3f0ef520	0.5584278
7	0x3df52c92	0.11971392
8	0x3ed9bff7	0.4252927
9	0x3e37d5f1	0.17952706
10	0x3e32261c	0.1739735
11	0x3e5d178e	0.21591017
12	0x3e210fde	0.15728709
13	0x3da3dff2	0.080016986
14	0x3ccf172f	0.02527961
15	0x3ed70677	0.4199712
16	0x3d860ed8	0.065458
17	0x3e8877ad	0.26653805
18	0x3eb9f071	0.36316255
19	0xbd5f0f0a	-0.0544577
20	0x3ed5b873	0.41742286
21	0x3d93387b	0.07188507
22	0x3d0b1491	0.03395516
23	0x3da922f2	0.082586184
24	0x3e6fe52d	0.23427267
25	0xbe17dca1	-0.14830257
26	0x3bfcd2ac	0.0077155437
27	0xbe21edfa	-0.15813437
28	0xbe5a66eb	-0.21328323
29	0xbdc1eaac	-0.09468588
30	0xbaa70561	-0.0012742692
31	0x3de6826e	0.11255346
32	0xbe91261b	-0.28349385
33	0xbe39b681	-0.18136026
34	0xbe91367e	-0.28361887
35	0xbe2c201a	-0.16809121
36	0x3e6eaf83	0.2330914
37	0xbd866c7a	-0.06563659
38	0x3ebd9308	0.37026238
39	0xbb84e4de	-0.0040556034
40	0xbe0d9c3c	-0.1382913
41	0x3ef549f7	0.47907993
42	0x3db6475c	0.089003295
43	0x3ed016dc	0.4064244
44	0x3e995c75	0.29953352
45	0x3e9dde5b	0.30833706
46	0x3eaac24c	0.33351362
47	0x3d4323fa	0.04764173

lstm.weight_ih_l1 f4 [48, 12]
0	0x3ef821f8	0.48463416
1	0xbf07d740	-0.5306282
2	0x3ed987a7	0.42486307
3	0xbc9c6e87	-0.019095672
4	0xbf52270e	-0.8209084
5	0x3dcdda61	0.10051418
6	0xbefe3f88	-0.49657845
7	0xbf2e33ae	-0.68047607
8	0xbea28bc7	-0.31747267
9	0x3e3056d7	0.17220627
10	0xbeae9e44	-0.34105122
11	0x3f051920	0.5199146
12	0x3ea67fef	0.3251948
13	0x3da6db9d	0.08147357
14	0xbe9f14ad	-0.31070462
15	0xbcb39fc0	-0.02192676
16	0xbe75908e	-0.23980924
17	0x3f0d0e6c	0.5510013
18	0xbd38af5d	-0.045089114
19	0xbee85464	-0.45376885
20	0xbe47d5a5	-0.19515093
21	0xbea7cde3	-0.32774267
22	0xbdca0d10	-0.09865773
23	0xbe4aaaeb	-0.19791763
24	0x3e6b59f3	0.22983532
25	0xbdda3ad1	-0.106557496
26	0xbe5d19cc	-0.21591872
27	0xbeac3787	-0.33636114
28	0x3cb1aefa	0.02168988
29	0xbdbb54ba	-0.0914702
30	0xbd7e6252	-0.062105484
31	0xbedc546e	-0.43033165
32	0xbb3c6de2	-0.0028752019
33	0xbee8e654	-0.45488226
34	0xbe7587d4	-0.23977596
35	0x3c656658	0.014001451
36	0xbe08b10e	-0.13348791
37	0x3e5879e6	0.2114025
38	0x3d35e057	0.0444034
39	0xbe4306fc	-0.19045633
40	0xbdc15ff8	-0.09442133
41	0x391aa901	0.00014749543
42	0x3e93bd92	0.28855568
43	0x3dcf7ec6	0.10131602
44	0xbe63831f	-0.22217987
45	0xbe970618	-0.29496837
46	0xbe21effc	-0.15814203
47	0x3e311115	0.17291673
48	0x3e1d67ff	0.15371703
49	0xbe386e2e	-0.1801078
50	0xbd07d76a	-0.03316442
51	0xbd794fc9	-0.060867105
52	0xbca57fa1	-0.02020246
53	0x3eb9435b	0.361842
54	0x3ea5be8a	0.32371932
55	0x3e055185	0.13019378
56	0xbe89d7cb	-0.2692245
57	0xbeca4571	-0.39506105
58	0x3e382792	0.17983845
59	0xbe9b7793	-0.30364665
60	0x3e81553f	0.2526035
61	0xbea0df21	-0.31420234
62	0x3e64a079	0.2232684
63	0xbe8313c7	-0.25601026
64	0xbe567d0a	-0.20946136
65	0xbe202de7	-0.1564251
66	0xbe3dff17	-0.1855434
67	0xbef2087a	-0.47272092
68	0x3e00ba47	0.12571059
69	0xbed5df81	-0.41772082
70	0xbe8d5049	-0.27600315
71	0x3dd3bfc1	0.103393085
72	0x3ec5a365	0.38601223
73	0x3dc52e90	0.09628022
74	0xbe7758cd	-0.24154969
75	0xbe778236	-0.24170765
76	0xbdced11b	-0.100984775
77	0x3ea5345e	0.32266515
78	0x3dfc9e6b	0.12334903
79	0xbee68eda	-0.45030862
80	0x3d2dcf2a	0.042433895
81	0xbea7740a	-0.32705718
82	0xbe5ff0df	-0.21869229
83	0x3de9a392	0.11408152
84	0xbe10b9c6	-0.14133367
85	0x3ddf00e8	0.10888845
86	0x3cecfc22	0.02892882
87	0x3e50ae45	0.20378979
88	0x3d83a66e	0.06428228
89	0x3ceb3908	0.028713718
90	0xbd8045fe	-0.0626335
91	0xbd052187	-0.032502677
92	0xbe09cba7	-0.13456593
93	0xbc437d19	-0.011931681
94	0x3eb63d27	0.3559353
95	0xbd4285df	-0.04749095
96	0x3e8e9a6e	0.27852196
97	0xbba74f47	-0.005105886
98	0xbe9e983e	-0.30975527
99	0x3e11489c	0.14187855
100	0xbe0c7368	-0.13715899
101	0x3dc38eff	0.09548759
102	0x3d8ee49b	0.06977197
103	0x3c343289	0.010998377
104	0xbe7c85eb	-0.2466046
105	0xbde2136c	-0.11038861
106	0xbebc0c2b	-0.36728033
107	0xbd7a2954	-0.06107457
108	0xbe90c492	-0.2827497
109	0xbe597167	-0.21234666
110	0x3d83673a	0.06416173
111	0xbd245b09	-0.04012588
112	0xbe032829	-0.12808289
113	0xbd45451f	-0.048161622
114	0x3e82af21	0.25524238
115	0xbf07caf9	-0.53044087
116	0xbea8e359	-0.32985952
117	0xbea2efa9	-0.3182347
118	0x3ca0a3d4	0.01960937
119	0x3d10b039	0.03532431
120	0xbe733cfe	-0.23753735
121	0x3d88908c	0.06668195
122	0xbf295faf	-0.66161627
123	0xbe52b394	-0.20576316
124	0x3e416bd2	0.18888786
125	0xbe14372e	-0.14474174
126	0xbcc8aa1b	-0.024495175
127	0x3df14db5	0.117823996
128	0xbd08324a	-0.033251084
129	0x3f01ceed	0.5070637
130	0x3e4adaf4	0.19810086
131	0xbdf14a36	-0.11781733
132	0x3ec94299	0.39308622
133	0xbea6158f	-0.32438323
134	0xbc2b9bb2	-0.010474132
135	0xbe9f14c3	-0.31070527
136	0xbe61545f	-0.22004841
137	0x3d3e6db3	0.046491336
138	0x3ebb3fe4	0.36572182
139	0x3e48762a	0.19576326
140	0xbeb79791	-0.35857823
141	0xbe918ff5	-0.28430143
142	0x3df5fb68	0.120108426
143	0xbed0be73	-0.407703
144	0x3ea5af75	0.32360426
145	0xbd188a4c	-0.037241265
146	0xbca129b3	-0.019673204
147	0xbe494a49	-0.19657244
148	0xbe0ff3d1	-0.14057852
149	0xbe9be55f	-0.30448434
150	0xbe3f08f3	-0.18655758
151	0xbe6dd4f8	-0.23225772
152	0x3d47abb1	0.048747722
153	0x3e491eae	0.1964061
154	0xbdce511d	-0.10074065
155	0xbeb50e68	-0.35362554
156	0x3b71c9ef	0.0036894043
157	0xbe4ca67c	-0.19985384
158	0xbeefe7a7	-0.46856424
159	0xbd022e2f	-0.031782325
160	0x3e1b1394	0.15144187
161	0xbe7e4369	-0.24830402
162	0x3efda760	0.4954176
163	0xbe954a26	-0.29158133
164	0x3e15c837	0.14627157
165	0xbda75629	-0.081707306
166	0xbeda2e20	-0.42613316
167	0x3d03a02a	0.032135166
168	0xbdfdcc90	-0.12392533
169	0x3e25a6a8	0.16176856
170	0x3d9f0523	0.077646516
171	0x3df255c1	0.118327625
172	0x3d10dacc	0.03536491
173	0x3d8c8f24	0.068632394
174	0x3e2cd578	0.16878307
175	0xbde0afd6	-0.10971038
176	0xbe5dc1a3	-0.21655898
177	0xbed69729	-0.419122
178	0xbde796f7	-0.11308091
179	0x3e392eb1	0.18084218
180	0x3e84f091	0.25964788
181	0xbda47be9	-0.080314465
182	0x3e4ef682	0.20211223
183	0x3e09e65a	0.13466778
184	0x3e5ae6a8	0.21377051
185	0xbe7aafef	-0.24481176
186	0xbc0c28eb	-0.0085546775
187	0xbd066a60	-0.03281629
188	0xbe30b46e	-0.17256328
189	0xbe69bebd	-0.22826667
190	0xbe8119fb	-0.25215134
191	0xbcff4587	-0.031161083
192	0x3d5ba3d2	0.053623028
193	0xbe8a08e7	-0.26959917
194	0xbeb14f0b	-0.34630617
195	0xbd784ba2	-0.060619004
196	0x3e8c9c6d	0.27463093
197	0x3ecbfd33	0.39841613
198	0x3e0c4ef2	0.1370199
199	0x3d77ae19	0.060468767
200	0x3db14060	0.08654857
201	0xbf10d642	-0.5657693
202	0xbe8f0824	-0.27935898
203	0x3e3214af	0.17390703
204	0x3e8e5f5b	0.27807125
205	0xbe69d86b	-0.22836463
206	0x3f0a0e4d	0.5392807
207	0x3e9be442	0.30447584
208	0xbe82795a	-0.2548321
209	0xbd4df172	-0.05027909
210	0x3ca12c43	0.019674426
211	0xbea1091a	-0.31452256
212	0xbe8a44f1	-0.27005723
213	0xbe41bad0	-0.1891892
214	0xbe97bccf	-0.29636237
215	0xbd00ce44	-0.03144671
216	0xbd11e4c1	-0.035618547
217	0xbbabc56a	-0.0052420394
218	0xbeb20184	-0.3476678
219	0xbec27dcf	-0.3798661
220	0x3e4aada2	0.19792798
221	0x3e033d62	0.12816384
222	0x3e991473	0.29898414
223	0xbea9aa49	-0.3313773
224	0x3dc17c06	0.09447484
225	0x3de1200b	0.1099244
226	0xbdb46bca	-0.08809622
227	0xbeb078da	-0.34467202
228	0xbe5b1b2a	-0.21397081
229	0x3dcfa007	0.10137945
230	0xbe4efb95	-0.20213158
231	0x3e892346	0.26784724
232	0x3e5585df	0.20851849
233	0x3efb9c52	0.491427
234	0xbc187c68	-0.0093070045
235	0xbdfe88f5	-0.12428466
236	0x3dd8e137	0.10589831
237	0xbe9fcff8	-0.31213355
238	0xbd5e5fb4	-0.05429049
239	0xbdc99cb4	-0.09844342
240	0x3c872a50	0.016499668
241	0x3e07d912	0.132664
242	0xbc1ad99a	-0.009451294
243	0xbdffa59e	-0.12482761
244	0xbde6494b	-0.11244448
245	0x3d6d4564	0.057927504
246	0x3dcafd85	0.09911636
247	0xbd8df9a3	-0.0693238
248	0xbdb26f13	-0.08712592
249	0x3d6241e3	0.055238616
250	0xbeea9b1b	-0.4582146
251	0xbd58f2b9	-0.052965853
252	0xbd8ef9d7	-0.06981247
253	0xbde86037	-0.113464765
254	0xbc18fa59	-0.009337031
255	0xbec3563c	-0.3815173

lstm.weight_hh_l1 f4 [48, 12]
0	0x3e6c055c	0.2304892
1	0x3e77623a	0.24158564
2	0xbe85020e	-0.2597813
3	0xbea7bcf1	-0.32761338
4	0x3c96c866	0.018406104
5	0xbe874110	-0.26416826
6	0xbea7fdd3	-0.3281084
7	0x3e5ca961	0.21548988
8	0x3dcac47b	0.09900757
9	0x3dec90a3	0.11551025
10	0xbf11a661	-0.568945
11	0x3e2c8c05	0.16850288
12	0xbe3a7508	-0.18208706
13	0xbce696f0	-0.028148144
14	0xbe829bc3	-0.25509462
15	0xbe64a4ec	-0.22328538
16	0xbd805ca2	-0.06267668
17	0xbc305771	-0.010763035
18	0x3d70d163	0.058793437
19	0xbdc1592b	-0.094408356
20	0x3ea18d36	0.31553048
21	0xbdddf2d5	-0.10837332
22	0x3a717b0a	0.00092117547
23	0x3d0daa6d	0.03458636
24	0x3ed98f5a	0.4249218
25	0xbdfe7bb0	-0.12425935
26	0xbde12533	-0.10993423
27	0x3d820298	0.06348151
28	0xbe6180b7	-0.22021757
29	0xbe50cf93	-0.20391683
30	0x3e5b9e29	0.21447052
31	0xbdb65bee	-0.08904253
32	0x3dfd1116	0.123567745
33	0xbe104964	-0.14090496
34	0x3e253e4c	0.16137046
35	0x3e89f968	0.26948094
36	0x3df82c64	0.12117842
37	0x3e8e6f41	0.27819255
38	0xbe160ab1	-0.14652516
39	0x3e78f85c	0.24313492
40	0xbc92ffdb	-0.017944267
41	0xbd87ebdf	-0.06636786
42	0x3daff5a0	0.08591771
43	0x3ea72ef6	0.32653016
44	0x3d8cf14b	0.068819605
45	0x3e858660	0.26079082
46	0x3e541081	0.2070942
47	0xbdbdbab7	-0.09264129
48	0x3e10dce0	0.14146757
49	0x3cd123a6	0.025529694
50	0x3e20946d	0.1568162
51	0xbeb9e490	-0.36307192
52	0xbeb8ec58	-0.36117816
53	0xbea1a806	-0.31573504
54	0xbe6823d7	-0.22669922
55	0xbe1267aa	-0.14297357
56	0x3eb03f9b	0.34423527
57	0x3d016526	0.031590603
58	0xbdb4742d	-0.08811221
59	0xbdecac74	-0.1155633
60	0x3e72755d	0.23677583
61	0x3dbe0b12	0.09279455
62	0x3e453102	0.19256976
63	0xbe96f17e	-0.2948112
64	0xbe10f620	-0.14156389
65	0xbe1e0387	-0.15431033
66	0x3c8b0174	0.016968466
67	0xbe6036ef	-0.21895956
68	0xbdfdd01a	-0.12393208
69	0xbc179edd	-0.009254185
70	0xbc91bd4f	-0.017790465
71	0xbe6166bb	-0.22011845
72	0x3e283be3	0.16429095
73	0x3c390b22	0.011294158
74	0xbe52df17	-0.20592915
75	0x3ddf37bd	0.10899303
76	0x3e6be14f	0.23035167
77	0xbe32a6bd	-0.17446418
78	0x3d8e337b	0.06943413
79	0x3eb1a1d5	0.3469378
80	0xbd17a2d7	-0.03702053
81	0x3d241673	0.04006047
82	0xbeb36426	-0.35037345
83	0x3e8bbd10	0.2729268
84	0x3c89691e	0.016773757
85	0x3e3d04bb	0.18458836
86	0x3e8d28d0	0.275702
87	0x3e9bad7e	0.30405802
88	0x3e308390	0.17237687
89	0xbe60d95e	-0.21957919
90	0x3e186fc0	0.14886379
91	0xbe7ab6d7	-0.2448381
92	0xbe875b39	-0.26436785
93	0x3e04f690	0.12984681
94	0xbdfea222	-0.12433268
95	0x3e092a71	0.13395096
96	0x3e8f11e1	0.27943328
97	0x3eb265dd	0.3484334
98	0xbd4a923a	-0.04945586
99	0xbe2c2295	-0.16810067
100	0xbdb852be	-0.09000157
101	0x3dce138c	0.10062322
102	0x3e401fdf	0.18762158
103	0x3e725b9f	0.23667763
104	0x3c9ff8e8	0.019527867
105	0x3e248a56	0.16068396
106	0xbd47f907	-0.048821475
107	0x3e9a22b7	0.3010461
108	0x3eb1fe72	0.3476444
109	0x3d9012b0	0.07034814
110	0xbe616f32	-0.22015074
111	0x3b8f21ba	0.004368034
112	0xbe3fd8c9	-0.1873504
113	0xbe8fb200	-0.2806549
114	0x3ca7f79f	0.020503817
115	0x3eabd4ec	0.33560884
116	0x3d9affaa	0.07568295
117	0x3e9e4a16	0.30915898
118	0x3db63bbe	0.08898114
119	0x3e62d9d8	0.22153413
120	0xbc82ce8a	-0.015967626
121	0xbd881cb7	-0.06646102
122	0xbe6ce098	-0.2313255
123	0x3b92d1f3	0.0044805943
124	0x3df5d1c2	0.12002899
125	0xbe76db0d	-0.24106999
126	0xbeb394f5	-0.35074583
127	0xbe8d65a5	-0.2761661
128	0x3dade3b7	0.08490699
129	0xbdf0a865	-0.11750869
130	0x3eddd504	0.4332658
131	0x3e71db9b	0.23618929
132	0x3ed5799b	0.4169434
133	0x3ec76272	0.38942295
134	0xbc66bab8	-0.014082603
135	0x3d62687d	0.05527543
136	0x3e31a94f	0.17349742
137	0xbdb9e601	-0.09077073
138	0xbe9d0a87	-0.30672094
139	0xbe63ca21	-0.22245075
140	0xbe400813	-0.1875308
141	0x3d0f5467	0.0349926
142	0xbe1aa953	-0.15103655
143	0x3e09b4d8	0.13447893
144	0x3e8c09c3	0.27351198
145	0x3e8cd854	0.27508795
146	0xbe620459	-0.22071971
147	0xbeae2650	-0.34013605
148	0xbd1e3e2c	-0.03863351
149	0xbe8611fb	-0.26185593
150	0xbe6c4828	-0.230744
151	0x3d1c0452	0.038090058
152	0x3f049408	0.5178838
153	0x3e902821	0.28155616
154	0xbe7d7a27	-0.24753629
155	0x3f113ac9	0.56730324
156	0x3e619e9d	0.22033162
157	0x3ec23a06	0.37934893
158	0x3d848de7	0.06472378
159	0xbc27a653	-0.010232526
160	0xbe424ccc	-0.18974608
161	0x3e376a75	0.17911704
162	0xbe26a98f	-0.16275619
163	0x3e0e67e4	0.13906819
164	0x3b95f6c4	0.004576536
165	0x3d536a6b	0.05161516
166	0xbeb63856	-0.35589856
167	0xbde84439	-0.113411374
168	0xbde6d8d4	-0.112718254
169	0x3e315baa	0.17320123
170	0xbce208b9	-0.02759205
171	0x3e595351	0.21223189
172	0xbe4c66f7	-0.19961153
173	0xbe68ea06	-0.22745523
174	0x3b41f2f8	0.0029594284
175	0xbd159140	-0.036515474
176	0x3e59e580	0.21278954
177	0xbe39f341	-0.181592
178	0xbda7b61f	-0.08189034
179	0xbda79e8b	-0.081845365
180	0x3ee9084b	0.4551414
181	0xbd73120e	-0.05934339
182	0xbdea107f	-0.11428928
183	0x3e3eef07	0.18645869
184	0xbd6c4168	-0.057679564
185	0x3e4b2061	0.1983657
186	0xbe3bcdac	-0.18340176
187	0xbde5c83a	-0.11219831
188	0xbe76872b	-0.24075
189	0x3dc9dc9e	0.098565325
190	0xbe0bb9ee	-0.13645145
191	0x3e3278bc	0.17428869
192	0xbe714d53	-0.23564653
193	0x3d641fd3	0.055694412
194	0xbe8fb12a	-0.28064853
195	0xbe4fad02	-0.20280841
196	0x3d7daa8f	0.061930235
197	0xbe22c1e6	-0.15894279
198	0xbd7f36f4	-0.062308267
199	0x3e93c956	0.28864545
200	0x3df3d9d3	0.11906781
201	0x3eada48d	0.33914605
202	0x3e9fdbdb	0.31222424
203	0x3e33cbdc	0.17558235
204	0x3ea170b7	0.31531307
205	0xbc86e46e	-0.016466346
206	0x3dc58382	0.09644224
207	0x3e7d738d	0.2475111
208	0x3e1b10e0	0.15143156
209	0x3dcd5255	0.10025469
210	0x3eadc970	0.33942747
211	0xbe4cfa1d	-0.20017286
212	0xbcd673ca	-0.02617826
213	0x3eb0f324	0.34560502
214	0x3cd5d1d1	0.026101025
215	0x3b971fbb	0.004611937
216	0x3e088c6b	0.13334815
217	0xbe286f2d	-0.1644866
218	0xbd5f659d	-0.054540265
219	0xbe48e008	-0.19616711
220	0x3d56f228	0.052477032
221	0xbd9aeb80	-0.07564449
222	0xbeb52a3f	-0.35383794
223	0x3d918b7a	0.07106681
224	0xbde03244	-0.109470874
225	0xbd9a95ba	-0.07548089
226	0xbebbd2cc	-0.36684263
227	0xbd8da14c	-0.069155306
228	0xbe6ac786	-0.22927675
229	0xbe2d12bd	-0.1690168
230	0xbe3852af	-0.18000291
231	0x3e635860	0.22201681
232	0x3be786d6	0.0070656342
233	0x3cfaf7bd	0.030635709
234	0x3e113eae	0.14184067
235	0x3e15bbf3	0.14622478
236	0xbe13e049	-0.14441027
237	0xbe095a3b	-0.13413326
238	0xbe106820	-0.1410222
239	0xbdb58bf0	-0.088645816
240	0x3eced2e6	0.40395278
241	0x3dd7428f	0.10510742
242	0xbe9dd329	-0.30825165
243	0x3e252888	0.16128743
244	0xbe85f2ff	-0.26161954
245	0xbe5c4c91	-0.21513583
246	0x3e102350	0.1407597
247	0xbe2d639a	-0.16932526
248	0xbdecc909	-0.11561782
249	0x3e56524c	0.20929831
250	0xbce503ed	-0.027955974
251	0xbe4ec7ca	-0.20193401
252	0xbcd3d378	-0.025857672
253	0xbdf1c78c	-0.11805639
254	0x3df982ef	0.12183177
255	0x3d8a23f2	0.06745137

lstm.bias_ih_l1 f4 [48]
0	0x3f13b785	0.57701904
1	0x3ed2f2f4	0.41200984
2	0x3ca30d6b	0.01990386
3	0x3d2ebf12	0.042662688
4	0x3dde5829	0.10856659
5	0x3e73d726	0.23812541
6	0x3e035646	0.1282588
7	0xbe60c57f	-0.21950339
8	0x3e9e0bfa	0.30868512
9	0x3c43a7ec	0.011941891
10	0x3ddb5d7d	0.10711191
11	0x3dd40d58	0.103541076
12	0x3e9b59b1	0.30341867
13	0x3e21d03c	0.15802091
14	0xba7ad6fc	-0.00095687783
15	0x3dfdaf35	0.12386934
16	0xbb872eef	-0.004125468
17	0xbcad4f52	-0.021155987
18	0x3eb0b701	0.3451462
19	0x3e0de156	0.1385549
20	0x3e059bff	0.13047789
21	0x3e94f8a7	0.29095957
22	0x3e305ab2	0.17222098
23	0x3e774cd8	0.24150407
24	0x3e088da7	0.13335286
25	0x3e6fd8cf	0.2342255
26	0xbcbc7e30	-0.02300939
27	0xbe0788a4	-0.13235718
28	0x3dd22299	0.10260505
29	0xba614b94	-0.0008594331
30	0xbd79707a	-0.06089828
31	0x3e129b34	0.14317018
32	0x3dbd7b86	0.09252076
33	0x3e1adf31	0.15124203
34	0xbe4ac32e	-0.19801018
35	0xbd6ecbad	-0.05829971
36	0x3dc237d1	0.094833024
37	0x3eb35d4c	0.35032117
38	0xbceb0095	-0.028686801
39	0x3c1a4daf	0.009417935
40	0xbe1c5113	-0.15265302
41	0x3e8e0e66	0.2774536
42	0xbd886d58	-0.06661481
43	0x3bc97634	0.006148124
44	0x3d33ab1f	0.043864366
45	0x3d4af1c5	0.049546976
46	0x3c76e854	0.01507004
47	0x3d198583	0.037480842

lstm.bias_hh_l1 f4 [48]
0	0x3e534e62	0.2063537
1	0x3e606f3b	0.21917431
2	0xbc3ae97f	-0.011408209
3	0xbe05b682	-0.13057902
4	0x3b899eb4	0.004199827
5	0xbcfe74dd	-0.031061584
6	0x3e63c69d	0.22243734
7	0x3e1ca5ba	0.15297595
8	0xbd049e50	-0.03237754
9	0x3e8090e0	0.2511053
10	0xbe2306af	-0.15920518
11	0xbd76f138	-0.060288638
12	0x3db8a4a1	0.090157755
13	0xbe4a147b	-0.19734375
14	0x3e6258d9	0.22104205
15	0xbd99f827	-0.075180344
16	0xbe2c5d5e	-0.16832492
17	0x3e21fae0	0.15818357
18	0xbe2e0fef	-0.16998266
19	0xbdefe4c2	-0.11713554
20	0xbd3533b3	-0.044238757
21	0x3db00917	0.08595484
22	0x3e98cf52	0.29845673
23	0x3e19ec11	0.15031458
24	0x3da12f12	0.07870306
25	0xbe4ee647	-0.20205031
26	0xbe907e31	-0.28221276
27	0xbdded0b3	-0.1087965
28	0x3dbb37a1	0.0914147
29	0xbe8862e1	-0.2663794
30	0x3d17f29d	0.03709661
31	0x3e45985a	0.19296399
32	0x3e90f082	0.28308493
33	0x3e85b1fb	0.2611235
34	0x3d6cffbf	0.057861086
35	0x3e22c3b4	0.15894967
36	0x3e8db7b2	0.2767921
37	0x3e882988	0.26594186
38	0xbd178751	-0.036994282
39	0xbdb97bce	-0.09056817
40	0x3dfaccc9	0.12246091
41	0x3d522e1c	0.051313505
42	0xbdba8870	-0.09108055
43	0x3df99768	0.121870816
44	0xbde0c5d1	-0.109752305
45	0x3c9c7da3	0.019102877
46	0x3e0c280a	0.13687149
47	0x3ea74492	0.32669502

linear.weight f4 [1, 12]
0	0x3d1145d6	0.03546699
1	0xbe52df52	-0.20593002
2	0x3e906b40	0.28206825
3	0x3e0e3988	0.13889134
4	0x3e677aee	0.22605488
5	0x3e2ae920	0.16690493
6	0x3eaf6199	0.3425415
7	0x3e1d98ee	0.1539037
8	0xbe009f7d	-0.1256084
9	0xbd6bf4e3	-0.05760659
10	0xbe913eef	-0.28368327
11	0xbe9c41e1	-0.30519012
