nn_16Sec_1887524-1978.pt (torch_old, 9566 bytes, 9 tensors)

lstm.weight_ih_l0 f4 [48, 1]
0	0xbe95e8fe	-0.2927932
1	0x3e51c966	0.20486984
2	0x3e4b6b39	0.19865121
3	0x3ed226e1	0.41045287
4	0xbacca90a	-0.0015614342
5	0x3e87a757	0.26494858
6	0x3e6d03fa	0.23146048
7	0x3e4ab167	0.19794236
8	0x3e10577c	0.14095873
9	0x3e47574b	0.19466893
10	0x3ee75ac2	0.4518643
11	0xbdab5f83	-0.08367827
12	0x3d8ae9b1	0.06782854
13	0x3ebf3087	0.3734171
14	0xbda0e0db	-0.07855388
15	0xbe8ca620	-0.27470493
16	0xbedfb686	-0.43693942
17	0xbef4a737	-0.47783825
18	0xbeffe682	-0.4998055
19	0x3d39af94	0.04533346
20	0x3ddee6fe	0.10883902
21	0x3e2819bf	0.16416071
22	0xbe2bf275	-0.16791709
23	0xbe995eb0	-0.29955053
24	0x3ed644f4	0.41849482
25	0x3e3aa795	0.1822799
26	0xbea701c3	-0.32618532
27	0xbe0183cf	-0.12647937
28	0x3da31c9a	0.0796444
29	0x3df69527	0.12040167
30	0xbee2ea41	-0.44319347
31	0xbe3430ef	-0.17596792
32	0x3da11e27	0.07867079
33	0x3e94ddcf	0.29075477
34	0x3ed90c96	0.42392415
35	0x3ee183ee	0.44045967
36	0xbe9c82b0	-0.30568457
37	0x3e5be826	0.21475276
38	0xbe2d27d1	-0.1690972
39	0x3f188f15	0.59593326
40	0xbddfa716	-0.10920541
41	0x3e9236be	0.2855739
42	0x3c1be6da	0.0095154885
43	0x3cdfe1a3	0.027329272
44	0x3eb60207	0.35548422
45	0x3e7e0aa2	0.24808744
46	0x3ef48928	0.47760892
47	0xbe337802	-0.17526248

lstm.weight_hh_l0 f4 [48, 12]
0	0xbd05423d	-0.032533873
1	0x3eda01fe	0.42579645
2	0xbebb7ad1	-0.3661714
3	0xbe77d884	-0.24203688
4	0x3e861bbf	0.26193044
5	0x3ea489b3	0.32136306
6	0x3e557b14	0.20847732
7	0xbecc8801	-0.39947513
8	0xbe44da21	-0.19223835
9	0x3ebeb9ad	0.37251034
10	0xbd87aae4	-0.06624392
11	0x3df5deb9	0.120053716
12	0xbe9a472e	-0.3013243
13	0x3d937c75	0.07201473
14	0xbe983f75	-0.29735914
15	0xbdfc6f8a	-0.12325962
16	0xbda803a7	-0.08203822
17	0x3e800b76	0.25008744
18	0x3e3b5b12	0.1829646
19	0x3e51250e	0.20424291
20	0xbcbb0f86	-0.02283455
21	0xbe47f600	-0.19527435
22	0xbcb43e41	-0.022002341
23	0x3d52dab9	0.05147812
24	0x3d8d61d1	0.069034226
25	0x3e7b0795	0.24514611
26	0xbed949f6	-0.4243924
27	0x3ede17c7	0.43377516
28	0x3e8c2424	0.27371323
29	0x3dde555b	0.10856124
30	0x3d8915b5	0.066935934
31	0x3e2eaf35	0.17059024
32	0xbe79c149	-0.24390139
33	0x3f0438f8	0.5164943
34	0xbef49689	-0.477711
35	0x3ea3ad89	0.31968334
36	0xbcfe91a0	-0.031075299
37	0x3f4a0903	0.7892
38	0xbde880fa	-0.11352725
39	0x3e20a50d	0.15687962
40	0x3ea231c9	0.31678608
41	0xbd845f15	-0.06463448
42	0x3dfa0c81	0.12209416
43	0xbcd92e68	-0.026511386
44	0xbdf3590f	-0.11882221
45	0x3d7b34a9	0.061329518
46	0x3e19b534	0.1501053
47	0x3e443326	0.19160137
48	0xbd30cb77	-0.04316279
49	0x3e88be23	0.26707563
50	0xbcd60301	-0.02612448
51	0x3e16b19c	0.1471619
52	0xbdcfee20	-0.101528406
53	0x3eb3b5b4	0.35099566
54	0x3e18572e	0.14877006
55	0x3e2ddef7	0.16979586
56	0xbe45152a	-0.19246355
57	0x3b6b4360	0.0035898313
58	0x3d6c9dac	0.057767555
59	0xbe25d47c	-0.16194338
60	0x3dcab828	0.09898406
61	0x3e1cab9e	0.15299842
62	0xbe956626	-0.29179496
63	0xbc3d4c37	-0.011553816
64	0x3ee8d1d1	0.45472577
65	0x3ea8e779	0.329891
66	0xbe5d5ec6	-0.21618184
67	0xbf0f3b7f	-0.5595016
68	0xbeaa46f9	-0.33257273
69	0x3db59e69	0.08868105
70	0x3d8a082a	0.067398384
71	0xbddb51c2	-0.107089534
72	0xbe88dfeb	-0.26733336
73	0x3eedace2	0.46420962
74	0xbec8c884	-0.3921548
75	0x3efcc4f8	0.49369025
76	0x3f135f49	0.5756727
77	0x3eca1da3	0.39475736
78	0xbe9cb884	-0.30609524
79	0xbeeae5aa	-0.45878345
80	0xbe999648	-0.29997468
81	0x3d560dee	0.052259378
82	0x3e848347	0.25881407
83	0x3eafcbda	0.34335214
84	0xbe1617e3	-0.1465755
85	0x3e7f7d19	0.24950065
86	0xbea0f462	-0.3143645
87	0xbdff0c9a	-0.124535754
88	0xbc36e550	-0.011163071
89	0x3e97f3f1	0.296783
90	0x3eb9967f	0.36247632
91	0x3ca8d46d	0.020609105
92	0xbe92e6b6	-0.28691643
93	0x3ec210f0	0.37903547
94	0xbe8e64bf	-0.27811238
95	0xbd65252c	-0.055943653
96	0x3e277c00	0.16355896
97	0x3ee115d8	0.43961978
98	0xbd16fb73	-0.036860894
99	0x3ea0c4c6	0.31400126
100	0x3e1c013b	0.15234844
101	0x3ec11050	0.37707758
102	0x3e251a67	0.16123353
103	0xbed4d6a6	-0.41570014
104	0xbedf16af	-0.43571994
105	0x3e2654c9	0.1624328
106	0xbe34ad3a	-0.17644206
107	0x3e1bfc9c	0.15233082
108	0xbdc5b193	-0.0965301
109	0x3d1effd8	0.03881821
110	0xbeb83169	-0.35975197
111	0xbe37d95b	-0.17954008
112	0x3e5bf704	0.21480948
113	0x3e6e4842	0.23269752
114	0xbe2f659e	-0.17128608
115	0x3c268639	0.010163837
116	0xbe8270aa	-0.2547658
117	0xbd092a46	-0.03348758
118	0xbe1c4def	-0.15264104
119	0x3eba1386	0.3634302
120	0xbe25de45	-0.1619807
121	0x3e67d21d	0.22638746
122	0xbef113a5	-0.470853
123	0x3d01b8bb	0.031670313
124	0x3e20f3b9	0.15717973
125	0x3dbe5e79	0.09295363
126	0xbe14b87e	-0.14523503
127	0xbe34ea1c	-0.1766743
128	0xbedb5165	-0.42835537
129	0x3f143b7c	0.57903266
130	0x3e30db5d	0.1727118
131	0xbde23ff0	-0.11047351
132	0xbc8a283e	-0.016864892
133	0x3d6e3519	0.058156107
134	0xbed7b2ff	-0.4212875
135	0x3ed946b4	0.42436755
136	0x3eb53a5d	0.3539609
137	0x3e4aa43b	0.19789211
138	0xbec20fea	-0.37902766
139	0xbe384efa	-0.17998877
140	0xbdd9f320	-0.106420755
141	0x3de900d7	0.11377113
142	0xbe3eaeaa	-0.18621317
143	0x3ea3bfd6	0.31982297
144	0xbece06bf	-0.40239522
145	0x3e8e235c	0.27761352
146	0xbe83f60b	-0.25773653
147	0x3e11029e	0.14161155
148	0x3e267728	0.16256392
149	0x3e8f433a	0.27980977
150	0xbb857eb6	-0.004073943
151	0xbd97d696	-0.07413976
152	0xbee0c90e	-0.43903393
153	0xbc55ec4a	-0.013056824
154	0xbf06730e	-0.5251931
155	0x3df257e5	0.11833171
156	0xbd99015f	-0.07470965
157	0xbce9c4d2	-0.028536234
158	0xbe0e9bf1	-0.13926674
159	0x3f1136c0	0.56724167
160	0x3e1daefe	0.15398785
161	0x3eeda34e	0.46413654
162	0xbe8f3225	-0.27967945
163	0xbd013a80	-0.03154993
164	0xbeab00eb	-0.33399138
165	0x3f1e9c4c	0.6195724
166	0x3e95c968	0.29255223
167	0x3e3d23fb	0.18470757
168	0xbe895d07	-0.26828787
169	0x3dc05c1d	0.09392569
170	0xbe82efb6	-0.2557351
171	0xbd32fb47	-0.043696668
172	0x3ebea25c	0.37233245
173	0x3eb1c2b7	0.34718868
174	0xbeb5ccc7	-0.35507795
175	0xbeac7cc5	-0.33688942
176	0xbe9250ff	-0.2857742
177	0x3e083339	0.1330079
178	0xbce96f31	-0.028495403
179	0x3d9f327e	0.077733025
180	0x3e317db6	0.17333111
181	0x3de181a8	0.11011058
182	0xbed02825	-0.40655628
183	0x3e2d0d58	0.16899621
184	0x3e97ce28	0.29649472
185	0xbda79e09	-0.0818444
186	0xbeec141c	-0.46109092
187	0xbed90286	-0.42384738
188	0xbdb0f550	-0.0864054
189	0x3df2bacd	0.11852036
190	0xbe5bd556	-0.214681
191	0x3ba08f67	0.0048999074
192	0x3dd5c306	0.104375884
193	0x3ebe3cb9	0.37155703
194	0xbe654093	-0.22387914
195	0x3d231fd6	0.039825283
196	0x3e694009	0.22778334
197	0x3ec733cb	0.38906702
198	0xbd35a933	-0.044350814
199	0x3e1fb5e1	0.15596725
200	0x3e595fef	0.21228002
201	0x3c5d0aaa	0.013491312
202	0xbe592c01	-0.21208192
203	0xbda06fd4	-0.078338295
204	0x3e8147da	0.2525013
205	0xbf22b2f1	-0.6355429
206	0xbe8d32b3	-0.27577743
207	0x3e8dc918	0.27692485
208	0x3eaa550b	0.33268008
209	0x3d959d78	0.073054254
210	0x3de08e52	0.109646454
211	0xbef596c5	-0.4796659
212	0xbed822d1	-0.42214063
213	0x3da9ca86	0.082905814
214	0x3e3f2b8b	0.18668954
215	0xbdb6a6bd	-0.089185216
216	0x3e610446	0.21974286
217	0xbd9b46e1	-0.075818785
218	0xbeac28c5	-0.33624855
219	0x3dcf35db	0.10117694
220	0x3deec289	0.116581984
221	0x3ebbea59	0.3670223
222	0xbe040ece	-0.12896273
223	0xbe53f719	-0.20699729
224	0xbe5e7fbc	-0.21728414
225	0x3e5e807f	0.21728705
226	0x3e89db77	0.2692525
227	0x3e4c3363	0.19941477
228	0xb9ef1f16	-0.00045608793
229	0xbe2c2e40	-0.16814518
230	0x3d20ef34	0.039290622
231	0xbcbbb517	-0.022913499
232	0x3ebd8031	0.37011865
233	0x3e822fb9	0.25427034
234	0xbe2f7129	-0.17133011
235	0xbd6aeeb2	-0.057356544
236	0xbefa3145	-0.48865715
237	0xbd4ed2e7	-0.0504941
238	0xbe77387d	-0.24142642
239	0xbe63fff1	-0.22265603
240	0xbe03fdd7	-0.12889801
241	0x3ea1c2eb	0.31594023
242	0xbea4a288	-0.32155252
243	0xbd82b1cf	-0.063815705
244	0xbcde8718	-0.027164027
245	0x3cbc7b8d	0.023008132
246	0x3d613178	0.054978818
247	0xbe58c1fc	-0.21167749
248	0xbebb661c	-0.3660134
249	0x3e230c81	0.15922739
250	0x3d4286c3	0.0474918
251	0xbda4e56c	-0.08051571
252	0x3dbfe1ed	0.09369264
253	0xbe3bf41b	-0.18354838
254	0xbd505fe0	-0.050872684
255	0x3dea78e7	0.114488415

lstm.bias_ih_l0 f4 [48]
0	0x3eb87b6d	0.36031666
1	0x3e87c3d6	0.26516598
2	0x3e6351a9	0.2219912
3	0x3e87d298	0.26527858
4	0x3e3b1347	0.18269072
5	0x3e9ebb2c	0.31002176
6	0x3e9085dc	0.28227127
7	0xbd1bbbc3	-0.03802086
8	0xbdc5158b	-0.096232496
9	0xbd8eb1c7	-0.06967502
10	0x3ed27624	0.4110576
11	0x3ed19a4d	0.40938035
12	0x3e68a497	0.22719036
13	0x3e2fdc7a	0.17173949
14	0x3ef90ecb	0.486441
15	0x3ecf3b0c	0.40474737
16	0x3bc615e8	0.006045092
17	0x3e7ac95b	0.24490874
18	0x3eb0ff44	0.34569752
19	0x3e826c80	0.25473404
20	0xbe710650	-0.23537564
21	0x3e52a889	0.20572104
22	0x3e8b2f1d	0.27184382
23	0xbdd4a0c0	-0.10382223
24	0xbe6dbb56	-0.23215994
25	0x3d5b2333	0.053500365
26	0xbe1766fb	-0.14785378
27	0x3e98af93	0.29821452
28	0x3d85a716	0.0652601
29	0x3eb3f3a6	0.35146827
30	0xbea7df43	-0.32787523
31	0xbcebf0c0	-0.028801322
32	0xbe3812d2	-0.1797593
33	0x3e6d7a9c	0.23191303
34	0xbdfce06e	-0.12347494
35	0xbe2d4449	-0.1692058
36	0x3ed9693c	0.424631
37	0x3e4e4d74	0.20146734
38	0x3eb90920	0.36139774
39	0x3e5eac17	0.21745335
40	0x3e40c27b	0.18824188
41	0x3e9dbf19	0.30809858
42	0x3e0b8bdc	0.13627571
43	0x3ee0aa3f	0.43879887
44	0xbaf71198	-0.0018849848
45	0xbdbe3954	-0.09288278
46	0x3dbe713c	0.092989415
47	0x3e5e0821	0.21682788

lstm.bias_hh_l0 f4 [48]
0	0x3e8cb086	0.27478427
1	0x3d10c473	0.0353436
2	0x3cb7e2c6	0.022447001
3	0xbca49dd1	-0.020094784
4	0x3ea87528	0.32901883
5	0xbe0dc3e0	-0.13844252
6	0x3c952098	0.018204018
7	0x3ec337ce	0.38128513
8	0x3e93c7c9	0.2886336
9	0x3e9935be	0.29923815
10	0x3ec276b7	0.37981197
11	0x3dd979e0	0.10618949
12	0xbe134329	-0.14381088
13	0x3ef5bdff	0.47996518
14	0x3e063a42	0.13108161
15	0x3e613470	0.2199266
16	0x3eaccde1	0.33750823
17	0x3bcb6369	0.006206919
18	0x3e41a37c	0.1891002
19	0x3d3da012	0.046295233
20	0x3e931ed7	0.28734466
21	0xbdf2fd2b	-0.11864694
22	0x3d1e7f69	0.038695727
23	0x3e4f5100	0.20245743
24	0x3e2b598a	0.16733375
25	0x3e08d1f1	0.13361336
26	0xbcc681ba	-0.02423178
27	0x3d8d035a	0.06885405
28	0x3e94f951	0.29096463
29	0x3e51859f	0.20461129
30	0x3e6210ab	0.22076671
31	0xbe6389b1	-0.22220494
32	0x3c8e23d5	0.01735107
33	0x3d6b6828	0.057472378
34	0xbdc953d2	-0.098304406
35	0x3ddb618b	0.10711964
36	0x3efce554	0.49393713
37	0x3e7596e6	0.23983344
38	0x3e1ff719	0.15621604
39	0x3ddf72da	0.10910578
40	0x3e6f7d18	0.23387563
41	0x3d85b61e	0.06528877
42	0x3d85d65a	0.06535025
43	0x3e17ec05	0.14836128
44	0x3dfe2362	0.124090925
45	0xbde6d034	-0.1127018
46	0x3ee96f1d	0.45592585
47	0x3e9dfb21	0.3085566

lstm.weight_ih_l1 f4 [48, 12]
0	0xbe77cb1e	-0.24198577
1	0xbd45ccbe	-0.04829096
2	0xbe520f91	-0.2051375
3	0x3f19bfd7	0.6005835
4	0x3ed5d5f5	0.417648
5	0x3e9bce0b	0.30430636
6	0xbebbf75d	-0.3671216
7	0xbe74911f	-0.23883484
8	0xbe1a1000	-0.15045166
9	0x3ee24273	0.44191322
10	0xbd9af5eb	-0.075664364
11	0x3e603a3b	0.21897213
12	0x3dab308b	0.08358868
13	0x3be9cd93	0.007135102
14	0xbc37603a	-0.011192376
15	0x3c016afe	0.007899044
16	0x3e271664	0.16317135
17	0x3ef3a0b6	0.4758355
18	0xbe7595d6	-0.23982939
19	0xbe95d5bd	-0.29264632
20	0xbed2dd37	-0.411844
21	0x3de2c39e	0.11072467
22	0x3db67593	0.08909144
23	0x3ee6c3fe	0.45071405
24	0xbe821dbb	-0.25413308
25	0xbebf5bf8	-0.37374854
26	0xbe7d4c34	-0.247361
27	0xbea25764	-0.317073
28	0x3e8213b2	0.2540565
29	0x3e6f1a96	0.23349985
30	0x3eb21dce	0.34788364
31	0xbe791fb9	-0.24328507
32	0x3d2abd7e	0.04168462
33	0x3eab35d2	0.334395
34	0xbefe06e4	-0.49614632
35	0xbe4e873b	-0.20168774
36	0xbde6b0c9	-0.11264188
37	0x3e7fe4e0	0.24989653
38	0xbdc59f9b	-0.09649583
39	0xbe48408c	-0.19555873
40	0x3f1231a3	0.5710699
41	0x3dfaa74d	0.12238941
42	0xbdf29fc1	-0.11846877
43	0xbe506281	-0.20350076
44	0xbdfa0c6a	-0.12209399
45	0x3e76fb3c	0.24119276
46	0xbe37d675	-0.17952903
47	0x3e8f5dad	0.28001156
48	0xbbf09d52	-0.007342973
49	0x3e608dfd	0.21929164
50	0xbb468e8f	-0.0030297374
51	0x3d736cd7	0.05942997
52	0x3e7dbe5e	0.2477965
53	0x3de26047	0.1105352
54	0x3deeb886	0.11656289
55	0xbe2721fb	-0.16321556
56	0xbe534773	-0.20632724
57	0xbd1e65a2	-0.038671143
58	0x3dc6b086	0.09701638
59	0xbd90d81a	-0.07072468
60	0xbddb377d	-0.10703943
61	0x3e0ec728	0.1394316
62	0x3e8d9122	0.2764979
63	0xbe5a90be	-0.21344277
64	0x3d6c5c9f	0.057705518
65	0xbe56be27	-0.20970975
66	0x3f0a4188	0.5400624
67	0x3d0e1740	0.03469014
68	0xbd924e0b	-0.07143792
69	0xbe794bcb	-0.24345319
70	0x3d2324a9	0.039829884
71	0xbf0ff4ff	-0.5623321
72	0x3e257eb2	0.16161612
73	0xbdcd2756	-0.10017268
74	0xbe41252c	-0.18861836
75	0x3de7bc50	0.11315215
76	0xbea8ab9d	-0.3294343
77	0xbe73fa03	-0.2382584
78	0xbdb7efaa	-0.08981259
79	0xbea7655b	-0.32694516
80	0xbdc18ab8	-0.094502866
81	0xbdac5eaf	-0.08416497
82	0x3e6af4b6	0.22944912
83	0x3daa4b34	0.08315125
84	0xbead6012	-0.33862358
85	0xbdc658a9	-0.09684879
86	0x3e866e5a	0.26256067
87	0x3d13ca83	0.036081802
88	0x3e640fa6	0.22271594
89	0xbcac13fe	-0.021005627
90	0x3e3e76b9	0.18599977
91	0xbe7b255a	-0.24525967
92	0x3e20cebf	0.15703867
93	0xbdb8eec1	-0.09029914
94	0x3d9960a1	0.074891336
95	0xbe739f87	-0.23791324
96	0x3e03de0c	0.12877673
97	0xbe1c0e4b	-0.15239827
98	0xbe93eec7	-0.2889311
99	0x3e73a33c	0.23792738
100	0x3e4c4cc7	0.19951163
101	0x3e848f5c	0.25890625
102	0x3b637b2b	0.0034710865
103	0x3e04bd4a	0.12962833
104	0xbe67d6ba	-0.22640505
105	0x3eb87507	0.36026785
106	0x3d4df257	0.05027994
107	0x3e5d96e4	0.21639591
108	0xbe09100d	-0.13385029
109	0xbea11c4d	-0.31466904
110	0x3e00fecb	0.12597196
111	0xbdd41e02	-0.10357286
112	0x3de38ccd	0.1111084
113	0xbddb43e7	-0.10706311
114	0x3e03b1a4	0.12860733
115	0xbe7b1476	-0.24519524
116	0xbe68d141	-0.22736074
117	0xbdebf9e4	-0.11522272
118	0xbe2f3b33	-0.17112426
119	0x3c2c9c9c	0.010535385
120	0xbe584f2d	-0.21123953
121	0xbdc7eaeb	-0.09761604
122	0xbebebcf4	-0.37253535
123	0xbe7351df	-0.237617
124	0xbd093719	-0.03349981
125	0x3eae3648	0.34025788
126	0x3e00d4d8	0.12581193
127	0xbf2283d3	-0.634824
128	0xbed49e3b	-0.4152697
129	0x3e916d9c	0.28403938
130	0xbd8ed2e7	-0.0697382
131	0xbead5850	-0.3385644
132	0x3e20e2c7	0.15711509
133	0x3e0344f2	0.1281927
134	0x3cf7b9b4	0.030239917
135	0xbd1b1860	-0.037865043
136	0x3d90e516	0.07074945
137	0x3d85fced	0.065423824
138	0xbd45496a	-0.048165716
139	0xbe81c2b3	-0.25343856
140	0x3ea5006d	0.32226887
141	0xbeab8203	-0.3349763
142	0xbea9c8f0	-0.33161116
143	0x3c831e6d	0.01600572
144	0x3d400cf3	0.04688735
145	0x3d5d0620	0.05396092
146	0xbe9ea832	-0.30987698
147	0x3db2d55c	0.08732101
148	0x3e82fe14	0.2558447
149	0x3e0d36ac	0.13790387
150	0xbe5f9cd4	-0.21837169
151	0xbdfae2c1	-0.12250281
152	0xbe9e7527	-0.30948755
153	0x3e62b314	0.22138625
154	0xbe87f13e	-0.2655124
155	0xbde37169	-0.11105616
156	0x3e8dc884	0.27692044
157	0xbeb6a29a	-0.3567093
158	0xbdf17f7d	-0.117918946
159	0xbcb5b7f9	-0.022182452
160	0x3d58cbae	0.05292862
161	0x3d8b19fd	0.06792066
162	0xbe0c1940	-0.13681507
163	0xbeec2e61	-0.46129134
164	0xbe66cbc3	-0.22538666
165	0xbd606e93	-0.05479295
166	0x3e388890	0.18020844
167	0x3e89404d	0.2680687
168	0xbec39768	-0.3820145
169	0x3ec0cb9e	0.37655348
170	0x3c232d3f	0.009959518
171	0xbe65c03b	-0.22436611
172	0x3ec4d09f	0.38440415
173	0xbe36b44f	-0.1784222
174	0x3d7c28dd	0.061562408
175	0x3df5d9c4	0.12004426
176	0x3e1289a0	0.14310312
177	0xbdbfe3ca	-0.09369619
178	0xbe4cd090	-0.20001435
179	0xbe7c558d	-0.2464201
180	0x3d628521	0.055302743
181	0xbec6a30d	-0.38796273
182	0xbec008bf	-0.37506673
183	0x3e528d35	0.20561679
184	0xbcdb5830	-0.02677545
185	0x3ea14979	0.31501368
186	0xbd8acd39	-0.06777424
187	0xbe8aaf38	-0.27086806
188	0xbd535a2a	-0.05159966
189	0x3edc6b5c	0.4305066
190	0xbdcd2cc9	-0.10018308
191	0xbe23b047	-0.15985213
192	0xbe959574	-0.29215586
193	0x3ebced32	0.36899716
194	0xbd57a569	-0.05264798
195	0xbe751b52	-0.23936203
196	0xbe148795	-0.14504845
197	0xbe3f2001	-0.18664552
198	0x3d81c28b	0.06335934
199	0x3d1bb23d	0.03801178
200	0x3e520bfe	0.20512387
201	0x3ea3580f	0.3190312
202	0xbea10ce4	-0.31455147
203	0xbc218368	-0.00985799
204	0xbedf6e7f	-0.4363899
205	0xbe6b9929	-0.23007645
206	0xbea83a1f	-0.32856843
207	0xbe5f3dff	-0.21800993
208	0x3cdee020	0.02720648
209	0x3e33994b	0.17538945
210	0x3f02e4f3	0.511306
211	0xbe2e3c73	-0.17015247
212	0xbed12453	-0.40848026
213	0xbdce77e9	-0.10081465
214	0x3d03f06f	0.032211717
215	0xbf251be5	-0.6449569
216	0xbe98b28b	-0.29823717
217	0xbe844271	-0.2583194
218	0xbe897892	-0.268498
219	0x3dbd0c66	0.092308804
220	0xbeb6d2a4	-0.3570758
221	0xbe6d8ca7	-0.23198186
222	0xbbdc8587	-0.006729785
223	0xbdb802a4	-0.08984879
224	0x3e8bc837	0.2730119
225	0xbd5c880a	-0.053840674
226	0xbe3bf8c1	-0.18356611
227	0xbe692d52	-0.22771195
228	0xbe82734f	-0.25478598
229	0x3e6e5a71	0.23276688
230	0x3e894ea3	0.26817808
231	0x3e07b568	0.13252795
232	0x3e6de7f2	0.23233011
233	0xbca4f0d9	-0.020134376
234	0xbddebb4f	-0.1087557
235	0xbe79874b	-0.24368016
236	0xbc5eac9f	-0.013590961
237	0x3ddbce19	0.107326694
238	0x3e0b30bc	0.1359281
239	0xba0fe0d2	-0.0005488518
240	0x3cf26e7b	0.029593697
241	0x3e7b0f28	0.245175
242	0x3e3ffc42	0.18748572
243	0x3e942646	0.2893545
244	0x3ebfeef2	0.37486988
245	0x3d5eea28	0.054422528
246	0xbe85d712	-0.26140648
247	0x3e261913	0.16220503
248	0xbe41565e	-0.18880603
249	0xbd1be5a6	-0.038060807
250	0xbd11bcf0	-0.035580575
251	0x3e2c29aa	0.16812769
252	0x3da1fd95	0.07909695
253	0xbd5d5e11	-0.054044787
254	0xbd7005ce	-0.058599286
255	0x3d4b29e4	0.049600497

lstm.weight_hh_l1 f4 [48, 12]
0	0xbe04820d	-0.12940235
1	0xbe00cb4d	-0.12577553
2	0xbea9d5c1	-0.33170894
3	0xbb9c559c	-0.0047709476
4	0xbee52701	-0.4475632
5	0xbeddf62e	-0.43351883
6	0xb9aedc34	-0.0003335193
7	0x3ecec899	0.4038742
8	0xbe5f43c9	-0.21803202
9	0x3ef81c4a	0.48459083
10	0x3d874ab3	0.066060446
11	0x3cbe5aef	0.02323672
12	0xbf0445fc	-0.5166929
13	0xbc3733ff	-0.01118183
14	0xbe12a35d	-0.1432013
15	0x3c8aaaa0	0.016927063
16	0xbec681ad	-0.3877081
17	0x3d84e294	0.06488529
18	0x3cab4c16	0.020910304
19	0x3ec46bb0	0.3836341
20	0xbd6b96f2	-0.057517
21	0x3b2223aa	0.0024740496
22	0xbdd8cb6a	-0.10585673
23	0x3e1f01d2	0.15528038
24	0xbe0f14fb	-0.13972847
25	0x3d638eee	0.05555623
26	0x3d8e2a9c	0.06941721
27	0x3eddbc86	0.43307894
28	0xbdcd4f50	-0.10024893
29	0xbbdd9acb	-0.0067628375
30	0xbe738750	-0.23782086
31	0x3dfe822e	0.124271736
32	0xbe3d373b	-0.184781
33	0xbe22d468	-0.15901339
34	0x3dcdbb23	0.10045459
35	0x3df66376	0.120306894
36	0xbe2a39d1	-0.16623618
37	0x3ea30f88	0.31847787
38	0xbd52e86c	-0.051491186
39	0x3e06e7a5	0.13174303
40	0xbdb2f288	-0.087376654
41	0x3e15d565	0.14632185
42	0x3da7eae0	0.08199096
43	0x3e821072	0.25403172
44	0xbca90a98	-0.020634934
45	0x3eddc8dd	0.4331731
46	0xbe846a70	-0.25862455
47	0xbd8e6529	-0.069528885
48	0xbe6f7c2c	-0.23387212
49	0x3eafd558	0.34342456
50	0xbcc6c95b	-0.024265936
51	0xbb836260	-0.00400953
52	0xbe21a262	-0.157846
53	0xbdabdf48	-0.08392197
54	0xbe676741	-0.22597982
55	0xba6145b6	-0.00085934566
56	0xbdfe6ab2	-0.12422694
57	0x3df932a2	0.121678606
58	0x3e4aa782	0.19790462
59	0xbea0b5d0	-0.31388712
60	0x3ee5e4d9	0.4490116
61	0xbe929213	-0.2862707
62	0xbce3006a	-0.027710158
63	0x3d20de38	0.039274424
64	0x3dbf8243	0.09351017
65	0xbdc1b93d	-0.094591595
66	0xbe691272	-0.22760943
67	0x3dbab1c8	0.0911594
68	0x3da1cd10	0.07900441
69	0x3daaad10	0.0833379
70	0x3ec88829	0.39166382
71	0x3e929a36	0.2863328
72	0x3dffa7c0	0.12483168
73	0x3d939947	0.0720697
74	0xbdcc5414	-0.09976974
75	0xbec026ee	-0.375297
76	0x3d9f6b9b	0.07784196
77	0xbe18c0a9	-0.14917244
78	0xbe67e086	-0.22644243
79	0x3b2350f8	0.0024920087
80	0xbdef8d7d	-0.116969086
81	0xbc6d025d	-0.0144658955
82	0xbe178bc2	-0.14799407
83	0x3e3483c5	0.17628391
84	0xbe1e0076	-0.15429863
85	0xbe0362b1	-0.12830617
86	0xbe897648	-0.26848054
87	0xbe44ff3f	-0.19237994
88	0xbd9e0d50	-0.07717383
89	0x3d62bd2c	0.05535619
90	0xbe364688	-0.17800343
91	0xbe048a4e	-0.12943384
92	0x3df57d33	0.119867705
93	0x3e053e7c	0.13012117
94	0x3e060c6c	0.13090676
95	0xbe1f58a9	-0.15561165
96	0xbecfe5b1	-0.40604928
97	0xbe2d011a	-0.16894951
98	0x3ed69960	0.4191389
99	0x3db617f9	0.08891291
100	0x3df67586	0.120341346
101	0x3e680224	0.22657067
102	0xbe701ab5	-0.23447688
103	0xbe707c19	-0.2348484
104	0xbe976139	-0.29566363
105	0x3e897984	0.26850522
106	0x3c945335	0.018106082
107	0xbe365ba1	-0.17808391
108	0xbd41c790	-0.04730946
109	0xbe0677bd	-0.13131614
110	0xbc40db53	-0.011771041
111	0xbe19cacf	-0.15018772
112	0xbcdb194d	-0.026745463
113	0x3e16d74f	0.14730571
114	0x3e612867	0.21988069
115	0x3d92c955	0.07167307
116	0x3e4481f7	0.19190203
117	0x3dbbe66a	0.09174807
118	0x3d8b1f6a	0.06793101
119	0x3d73ac86	0.059490703
120	0x3dcd35d8	0.100200355
121	0x3ebcda46	0.3688528
122	0xbf0d48c0	-0.5518913
123	0xbd0d39c6	-0.034478925
124	0xbe39a861	-0.18130638
125	0x3daf947b	0.08573242
126	0xbddf3772	-0.10899247
127	0x3eb6e068	0.35718083
128	0xbd985c41	-0.07439471
129	0x3e470422	0.1943517
130	0xbdb8ea5c	-0.090290755
131	0xbd87952f	-0.066202514
132	0xbcd11fce	-0.025527861
133	0xbea3c3bc	-0.3198527
134	0xbea4da1f	-0.32197663
135	0xbe64954a	-0.22322574
136	0xbe5b8f65	-0.2144142
137	0x3e10844e	0.1411297
138	0xbe64a044	-0.22326761
139	0xbe5620da	-0.2091097
140	0x3dcea4d6	0.10090034
141	0x3e728710	0.23684335
142	0x3e3948ee	0.18094227
143	0xbe3803d1	-0.17970206
144	0xbcab10ed	-0.020882094
145	0x3ddc8f37	0.107695036
146	0xbeaae67b	-0.33378968
147	0xbd91d6b1	-0.07121027
148	0xbea9c260	-0.3315611
149	0xbc62733a	-0.0138214175
150	0xbdfad9e2	-0.12248589
151	0x3e8a34c5	0.26993385
152	0x3d1de98d	0.03855281
153	0x3ec9b9dd	0.39399615
154	0xbdc9b8cd	-0.09849701
155	0xbdfb460b	-0.12269219
156	0xbecbdfdd	-0.39819232
157	0x3ef21c3b	0.47287163
158	0xbdc5b594	-0.09653774
159	0x3f02fc09	0.51165825
160	0xbe46d6f3	-0.19417934
161	0x3e64630d	0.2230341
162	0x3c2b21b5	0.010445048
163	0x3e92139e	0.28530592
164	0xbeb21979	-0.3478506
165	0xbc7c697e	-0.015406011
166	0xbd906a66	-0.07051544
167	0xbe37821d	-0.17920728
168	0xbe6dc5e0	-0.23220015
169	0x3d3fe4eb	0.046849173
170	0x3de467d8	0.11152619
171	0xbc40875e	-0.011751024
172	0xbeb60afe	-0.3555526
173	0xbe6ba4b0	-0.23012042
174	0xbe3358aa	-0.17514291
175	0xbe678dd7	-0.22612701
176	0x3db97716	0.09055917
177	0x3c987af3	0.018613314
178	0x3e906598	0.2820251
179	0x3f07d5ac	0.5306041
180	0x3b6b751a	0.0035927952
181	0x3e9ab333	0.30214843
182	0xbe5eb045	-0.21746929
183	0x3c56c6fa	0.013108963
184	0x3cb768bd	0.02238881
185	0x3e0e034d	0.13868447
186	0x3e7dccf8	0.2478522
187	0xbd69837c	-0.05701016
188	0xbea9ae14	-0.33140624
189	0xbd87b8ff	-0.06627082
190	0xbefde705	-0.49590316
191	0xbe1b88e8	-0.15188944
192	0x3d113705	0.03545286
193	0xbcd70737	-0.026248557
194	0x3ee90da6	0.45518225
195	0x3e9e7eb3	0.3095604
196	0x3def135c	0.116736144
197	0xbe5474f2	-0.20747736
198	0x3e4de6aa	0.20107523
199	0xbe574557	-0.21022545
200	0x3e4524e2	0.19252351
201	0x3ea1baec	0.31587923
202	0x3d2c8b76	0.042125188
203	0x3e84115d	0.25794497
204	0x3e8bc36b	0.2729753
205	0x3e6bf943	0.23044305
206	0x3e97f5c7	0.296797
207	0x3eacb688	0.3373301
208	0xbd5b2c81	-0.05350924
209	0x3e87a507	0.26493093
210	0xbdf3d06a	-0.11904986
211	0x3e31aa5c	0.17350143
212	0xbec27fc4	-0.37988102
213	0x3c56b196	0.013103863
214	0x3e8fe98f	0.2810788
215	0xbe0b2589	-0.13588537
216	0x3e819358	0.25307727
217	0xbe011311	-0.1260493
218	0xbe329d50	-0.17442822
219	0xbea1431f	-0.31496522
220	0x3d014268	0.03155747
221	0xbcc76bcb	-0.024343392
222	0xbdfb6aa6	-0.12276201
223	0x3e32ee3c	0.17473692
224	0xbe4ce8ba	-0.20010653
225	0x3e822c8d	0.25424615
226	0x3db14f77	0.08657735
227	0xbd986122	-0.074404016
228	0xbea9e700	-0.33184052
229	0xbe094c42	-0.13407996
230	0x3a353ede	0.000691397
231	0x3e22da7e	0.1590366
232	0xbe4ba17e	-0.19885823
233	0x3dca1850	0.098679185
234	0xbd872512	-0.065988675
235	0xbe8237b9	-0.25433138
236	0x3d0c6361	0.034274463
237	0xbe8c1da7	-0.27366373
238	0xbd5c7b3f	-0.053828474
239	0xbde1ff32	-0.11035003
240	0xbe72676f	-0.2367227
241	0xbe32b575	-0.17452033
242	0x3e33790e	0.17526647
243	0x3d6ae3fc	0.05734633
244	0xbca9aeb7	-0.020713193
245	0xbe838fed	-0.25695744
246	0x3e470047	0.194337
247	0x3c3e0d05	0.011599784
248	0xbdc60473	-0.09668817
249	0xbe33b8c0	-0.17550945
250	0xbe559c6a	-0.20860448
251	0x3e915fb8	0.2839334
252	0x3e92a624	0.2864238
253	0x3e00dd64	0.12584454
254	0xbed5e439	-0.41775683
255	0xbdeae947	-0.11470275

lstm.bias_ih_l1 f4 [48]
0	0x3e3abac5	0.1823531
1	0xbe2c8c61	-0.16850425
2	0x3e6e1993	0.23251943
3	0x3d73bbc1	0.059505228
4	0x3d38193e	0.044945948
5	0xbcc38468	-0.023866847
6	0xbdee7978	-0.11644262
7	0x3db725b8	0.08942741
8	0x3ea65478	0.3248632
9	0x3e5a2b6b	0.21305625
10	0xbe1160cd	-0.14197083
11	0x3db17a22	0.08665873
12	0x3eca6ee7	0.39537737
13	0x3d856685	0.06513695
14	0xbe0ba451	-0.136369
15	0x3d14df17	0.036345568
16	0xbe05d7b0	-0.1307056
17	0xbda8d352	-0.08243431
18	0x3cdf47b3	0.027255869
19	0x3e54067f	0.20705603
20	0x3e747167	0.23871385
21	0x3d5e1556	0.054219566
22	0xbd5ada1d	-0.053430665
23	0xbe8f82ee	-0.2802958
24	0xbde333d2	-0.11093868
25	0xbde4251c	-0.111398906
26	0x3de9ec75	0.11422054
27	0xbbd22121	-0.0064126407
28	0xbdbfd162	-0.093661085
29	0xbce67dfb	-0.028136244
30	0xbdc03d12	-0.09386648
31	0xbdd33f00	-0.10314751
32	0xbe7d9eee	-0.24767658
33	0x3d801294	0.062535435
34	0x3e7cf696	0.2470344
35	0xbd7b511e	-0.061356656
36	0x3e82eafb	0.255699
37	0xbc6fb87f	-0.01463139
38	0x3da8e1e2	0.08246209
39	0x3e919d9a	0.28440553
40	0x3eaf6fd7	0.34265015
41	0x3e92b638	0.28654647
42	0xbe9b4c47	-0.30331632
43	0xbe383a4e	-0.17990991
44	0x3df945ce	0.12171517
45	0xbe794260	-0.24341726
46	0x3e932f31	0.28746942
47	0x3e290fbf	0.16509913

lstm.bias_hh_l1 f4 [48]
0	0x3e81798e	0.2528805
1	0x3e262582	0.16225246
2	0xbe0a0e34	-0.1348198
3	0x3e78c3c0	0.24293423
4	0xbe46fbda	-0.19432011
5	0xbd416644	-0.04721667
6	0x3e73f6ac	0.23824567
7	0x3e67af61	0.22625495
8	0xbc7d75b7	-0.01546996
9	0xbda82db8	-0.08211845
10	0x3e977a91	0.29585698
11	0x3dc9f376	0.098608896
12	0x3e2c8c03	0.16850285
13	0xbe176520	-0.1478467
14	0xbe27dff3	-0.16394024
15	0x3ec2c3b3	0.38039932
16	0x3c6a12f9	0.01428675
17	0xb9dd4cd7	-0.00042209655
18	0xbe1a1095	-0.15045388
19	0xbe4b6663	-0.19863276
20	0xbbe46c12	-0.006970891
21	0xbe8cbc4b	-0.27487406
22	0xbd15e0fb	-0.03659151
23	0xbde4b810	-0.1116792
24	0x3e76b75d	0.24093385
25	0x3e8b51bd	0.272108
26	0xbe0ef35a	-0.13960019
27	0x3c6d67c0	0.014490068
28	0xbe47bcc3	-0.195056
29	0xbd3f2d00	-0.046673775
30	0xbe5c4e37	-0.21514212
31	0x3e65d220	0.22443438
32	0xbe72282e	-0.2364814
33	0x3e83135a	0.25600702
34	0xbd56d8f0	-0.05245298
35	0xbe34b2f8	-0.17646396
36	0x3eee6e59	0.46568564
37	0x3df46bb9	0.11934609
38	0x3e3c4e19	0.18389167
39	0x3dd22940	0.10261774
40	0xbdeb98c1	-0.11503745
41	0x3e7db7ac	0.24777097
42	0xbc1822ae	-0.009285612
43	0x3e6f52f1	0.23371483
44	0x3e2b39bb	0.16721241
45	0x3e87f67b	0.26555237
46	0x3db891b6	0.09012167
47	0x3d8397d1	0.06425441

linear.weight f4 [1, 12]
0	0x3ea24d73	0.31699714
1	0xbe1d9885	-0.15390213
2	0xbe4c1256	-0.1992887
3	0xbe3b00c8	-0.18262017
4	0x3e161fc8	0.14660561
5	0xbe543e94	-0.20726997
6	0xbe4f7f5e	-0.2026343
7	0x3e87514b	0.2642921
8	0x3d4de8c3	0.050270807
9	0x3e29b1d8	0.16571748
10	0x3e92ae5f	0.2864866
11	0xbe036a69	-0.12833561
