nn_16Sec_2677398-3042.pt (torch_old, 9566 bytes, 9 tensors)

lstm.weight_ih_l0 f4 [48, 1]
0.2590384 -0.37270862 -0.18368126 -0.093277805 0.52555764 0.11876357 -0.027729385 0.20886907
0.023220947 0.19786754 0.1882835 0.13583598 -0.16824396 -0.27744606 0.005516012 0.0054323333
0.33238208 0.32996905 -0.08227603 0.062348906 0.10245357 -0.083607405 -0.12166033 0.077582605
-0.39903572 0.18111217 0.34992257 0.018690992 0.3837347 0.18799113 0.17854975 -0.19015723
-0.4184273 0.109580584 0.10575657 0.31493813 0.45203537 -0.072918415 -0.038600203 0.07525569
0.23852432 0.26229388 -0.23355359 -0.02778838 0.3619161 0.32255965 0.17041366 0.15232784
00000000: aea0 843e aad3 bebe f116 3cbe 6f08 bfbd
00000010: f28a 063f 513a f33d bc28 e3bc c6e1 553e
00000020: db39 be3c ca9d 4a3e 64cd 403e 9618 0b3e
00000030: 2548 2cbe 690d 8ebe aabf b43b b701 b23b
00000040: fc2d aa3e b4f1 a83e 5680 a8bd 9161 7f3d
00000050: 2dd3 d13d 5c3a abbd 0d29 f9bd a1e3 9e3d
00000060: 694e ccbe 7875 393e 0d29 b33e da1d 993c
00000070: e078 c43e bf80 403e bfd5 363e 94b8 42be
00000080: 1a3c d6be c96b e03d e796 d83d 923f a13e
00000090: 2e71 e73e 4056 95bd 3f1b 1ebd a81f 9a3d
000000a0: b83f 743e 624b 863e ac28 6fbe 75a4 e3bc
000000b0: 114d b93e 8a26 a53e eb80 2e3e d4fb 1b3e

lstm.weight_hh_l0 f4 [48, 12]
-0.2694202 0.012483299 -0.19654454 0.35334525 0.22379553 -0.28351554 -0.20179841 -0.14572479
-0.060390443 0.36781967 -0.28538555 0.046633404 -0.26654547 -0.38577178 -0.4170424 -0.041806117
-0.18158011 -0.19313768 -0.11899642 0.10243449 -0.123662725 0.28925708 -0.17725004 0.08720823
-0.1272845 -0.0964008 -0.37347162 0.02567131 -0.22278495 -0.3904035 -0.39623 -0.2238049
-0.24789995 0.032913543 -0.36195233 0.08065713 0.34066156 0.18805802 -0.17810935 0.25862572
-0.18882848 -0.20478086 -0.25633806 0.0987039 -0.18322858 0.2771562 -0.11693071 0.071878225
-0.18047678 -0.30460876 -0.083967865 0.64324754 0.5535036 0.026853833 0.21010938 -0.35988468
-0.36278167 0.58033425 -0.12969264 -0.46067438 -0.04243109 -0.044194076 0.22881478 -0.2729333
-0.5082943 -0.13777155 0.3443786 0.0050601983 0.23472047 -0.017456526 0.078667 0.33233
-0.3835096 -0.23743144 0.041015346 0.037482694 -0.2715786 0.033133924 -0.35416558 -0.21587205
0.16383684 0.05127672 -0.0714535 0.04190302 0.012159572 -0.0982622 -0.274614 0.08092849
-0.12806538 -0.21542627 -0.15354402 -0.22326382 0.11948775 0.24841912 -0.119426645 -0.3050717
-0.40698996 -0.5312144 -0.3096061 0.4684125 0.16220438 -0.23547906 -0.28734416 -0.54896635
-0.07595459 0.32014656 -0.17603806 -0.11153573 -0.0809297 -0.43739563 -0.0074187773 0.24620853
0.13992031 -0.14302792 0.15163475 -0.34401584 -0.20541124 0.020262156 -0.08785496 -0.4901339
0.23674068 -0.27656078 -0.12749489 0.029776389 -0.3754831 -0.012375593 -0.37564558 -0.13658072
0.5641404 -0.19685075 -0.30581748 -0.12392988 0.023356881 -0.31836852 0.15763432 0.2990018
0.018840818 -0.21964005 -0.22961755 -0.12706369 0.33366156 -0.14555974 -0.38747498 -0.37173393
-0.31366354 -0.14315653 -0.07905818 0.113612525 -0.02796166 -0.0799784 0.4167284 -0.67966294
-0.055426866 0.24392341 -0.46412775 -0.30399078 0.13066776 -0.21946108 -0.2717353 0.0062017064
-0.14597212 0.033858113 -0.1356997 -0.014540204 0.41891748 0.17985529 -0.25706866 -0.024584392
-0.4264825 -0.112238325 0.08944037 0.40595794 -0.36906597 -0.4744291 -0.5503456 -0.06508534
-0.044169556 0.048228603 -0.35021788 -0.084004804 0.002792306 -0.4313796 -0.2698347 0.45086575
-0.32117936 -0.4537042 -0.21250331 0.10040069 -0.33315066 0.43822652 -0.3622175 0.04300607
-0.6575185 0.00401912 -0.30820552 0.1457059 0.7128905 0.08903992 -0.23909062 -0.22692159
-0.57376355 0.2968284 -0.46879166 -0.026890669 -0.19077308 -0.3899862 -0.110631205 0.23585172
-0.3270989 -0.15261418 0.16922913 -0.35293156 0.23294243 0.4293513 -0.49970752 -0.26357266
-0.14086615 -0.3117472 -0.37622553 0.33349785 0.044163 0.106804065 -0.32649305 -0.139848
-0.2560231 0.2557693 -0.26699072 -0.043144725 0.05588999 -0.41312674 -0.1478438 0.44954845
0.13943803 -0.23374972 0.050602667 0.074336976 0.175558 0.028459847 -0.33099532 -0.0076464824
-0.2684901 -0.22516087 -0.33688575 0.12680149 0.046276677 -0.2021031 0.21155441 -0.088772245
-0.35905483 0.10312846 -0.22729817 0.05140701 0.054089524 -0.019305717 0.07535119 0.3476959
00000000: 72f1 89be c086 4c3c f942 49be abe9 b43e
00000010: a82a 653e f328 91be 3ea4 4ebe e138 15be
00000020: f85b 77bd dc52 bc3e 0e1e 92be ab02 3f3d
00000030: a678 88be e183 c5be 9586 d5be e43c 2bbd
00000040: 23f0 39be e2c5 45be 65b4 f3bd 2dc9 d13d
00000050: e242 fdbd 8119 943e 0981 35be 3a9a b23d
00000060: de56 02be c86d c5bd ac37 bfbe a44c d23c
00000070: bd21 64be f8e2 c7be a9de cabe 1d2d 65be
00000080: 7cd9 7dbe 5ad0 063d d151 b9be 912f a53d
00000090: 316b ae3e 4892 403e 4c62 36be 976a 843e
000000a0: 415c 41be 13b2 51be be3e 83be 4525 ca3d
000000b0: 46a0 3bbe 6be7 8d3e 5e79 efbd e434 933d
000000c0: e8ce 38be aef5 9bbe 58f7 abbd dfab 243f
000000d0: 69b2 0d3f 92fc db3c ea26 573e ce42 b8be
000000e0: 85be b9be c990 143f 26ce 04be 83dd ebbe
000000f0: 39cc 2dbd d904 35bd 6c4e 6a3e eabd 8bbe
00000100: 931f 02bf fc13 0dbe 6452 b03e 05d0 a53b
00000110: 905a 703e fd00 8fbc 2a1c a13d 2827 aa3e
00000120: 5f5b c4be 3a21 73be b5ff 273d 7487 193d
00000130: 5a0c 8bbe 70b7 073d 3155 b5be 900d 5dbe
00000140: d8c4 273e 8a07 523d 3656 92bd 80a2 2b3d
00000150: f138 473c b13d c9bd 359a 8cbe d6bd a53d
00000160: 9223 03be b498 5cbe a53a 1dbe 459f 64be
00000170: feb5 f43d 9561 7e3e f595 f4bd 5c32 9cbe
00000180: fd60 d0be abfd 07bf b184 9ebe c3d3 ef3e
00000190: e818 263e 6c21 71be c61e 93be 0f89 0cbf
000001a0: 158e 9bbd 40ea a33e 5243 34be d86c e4bd
000001b0: 78be a5bd 52f2 dfbe 3719 f3bb 171e 7c3e
000001c0: 4547 0f3e e975 12be 2446 1b3e d822 b0be
000001d0: 5357 52be d2fc a53c 4ded b3bd d5f2 fabe
000001e0: 266c 723e 6099 8dbe 058e 02be 9ded f33c
000001f0: 523f c0be 00c3 4abc 9e54 c0be d1db 0bbe
00000200: 816b 103f 3e93 49be 1c94 9cbe f3ce fdbd
00000210: ee56 bf3c 3301 a3be e46a 213e c416 993e
00000220: 0f58 9a3c 52e9 60be dd20 6bbe fc1c 02be
00000230: b0d5 aa3e 9d0d 15be 1f63 c6be e953 bebe
00000240: 8298 a0be a097 12be 41e9 a1bd afad e83d
00000250: da0f e5bc b7cb a3bd 6d5d d53e 64fe 2dbf
00000260: 4807 63bd 0fc7 793e 27a2 edbe aea4 9bbe
00000270: c5cd 053e 68ba 60be e420 8bbe af37 cb3b
00000280: b779 15be ceae 0a3d ddf4 0abe 093a 6ebc
00000290: 5a7c d63e fc2b 383e 819e 83be 3565 c9bc
000002a0: ea5b dabe 35dd e5bd 832c b73d b8d9 cf3e
000002b0: 37f6 bcbe 5fe8 f2be 73e3 0cbf 764b 85bd
000002c0: 23eb 34bd 5b8b 453d c24f b3be b60a acbd
000002d0: 1fff 363b c9dd dcbe c627 8abe e0d7 e63e
000002e0: 9f71 a4be eb4b e8be 789a 59be e19e cd3d
000002f0: b992 aabe 3a5f e03e 9274 b9be 2227 303d
00000300: 2253 28bf d2b2 833b 1dcd 9dbe ed33 153e
00000310: fe7f 363f 905a b63d 2cd4 74be 225e 68be
00000320: 2be2 12bf e4f9 973e 7605 f0be d249 dcbc
00000330: 055a 43be 45ac c7be 9d92 e2bd 1d83 713e
00000340: 8279 a7be e446 1cbe 674a 2d3e 72b3 b4be
00000350: 7688 6e3e efd3 db3e aad9 ffbe fff2 86be
00000360: 373f 10be 549d 9fbe a2a0 c0be 3bc0 aa3e
00000370: 43e4 343d 17bc da3d 192a a7be 5034 0fbe
00000380: 7615 83be 32f4 823e 02b3 88be 86b8 30bd
00000390: e7ec 643d 5985 d3be 5d64 17be 372b e63e
000003a0: d8c8 0e3e 165c 6fbe be44 4f3d fc3d 983d
000003b0: 7ac5 333e a024 e93c 3878 a9be 588f fabb
000003c0: 8977 89be 9290 66be 4a7c acbe 40d8 013e
000003d0: 9d8c 3d3d 1df4 4ebe b8a1 583e 39ce b5bd
000003e0: 09d6 b7be 0435 d33d dac0 68be 2890 523d
000003f0: fa8c 5d3d 0627 9ebc ba51 9a3d 3205 b23e

lstm.bias_ih_l0 f4 [48]
-0.13391018 0.4051808 -0.096947014 0.14093061 -0.12932394 -0.055443056 -0.17989358 0.34052548
-0.06816142 0.30091146 0.2279107 -0.09905215 0.06889177 0.03632072 0.3028995 0.3515589
0.20387897 -0.017700728 0.33532822 -0.09761868 0.20481241 -0.025787469 -0.09650755 0.27123603
-0.17360277 0.05573468 0.019832924 0.101760365 -0.28562385 -0.010726704 -0.15502279 -0.11209808
0.18133998 0.21939732 -0.24829704 -0.029935353 -0.006571856 0.40144408 0.2599855 0.31933329
0.42523876 0.4013191 0.30799913 -0.119673446 0.035283275 -0.15500696 0.13029003 0.24405617
00000000: c01f 09be dc73 cf3e 288c c6bd 1d50 103e
00000010: 7f6d 04be 4218 63bd 0636 38be 5b59 ae3e
00000020: 3798 8bbd 1111 9a3e 6c61 693e dbdb cabd
00000030: 2117 8d3d 09c5 143d a515 9b3e 87ff b33e
00000040: a6c5 503e 1e01 91bc 24b0 ab3e 4dec c7bd
00000050: 58ba 513e 3e40 d3bc c0a5 c5bd 73df 8a3e
00000060: edc4 31be 0c4a 643d a878 a23c bd67 d03d
00000070: 4a3d 92be 0fbf 2fbc 4bbe 1ebe ae93 e5bd
00000080: 30b1 393e b1a9 603e 9441 7ebe fc3a f5bc
00000090: b958 d7bb 148a cd3e d21c 853e a77f a33e
000000a0: e5b8 d93e b279 cd3e 10b2 9d3e 5a17 f5bd
000000b0: 3285 103d 25ba 1ebe c06a 053e dce9 793e

lstm.bias_hh_l0 f4 [48]
0.09219604 0.35195613 -0.0884061 -0.21670204 -0.14861432 -0.18656069 -0.18589954 -0.026442442
0.019942177 -0.0069489083 0.04589515 -0.064314686 0.24324752 0.21857934 0.35268426 0.3870297
0.084108025 -0.030102218 0.15372108 0.35306656 -0.038961284 0.10753629 0.3707063 0.03846949
-0.19171704 -0.33296585 -0.28596792 0.09782261 0.13610543 -0.09013427 -0.0702261 0.004038453
-0.07093424 0.046577085 -0.22860715 -0.101102024 -0.0014968519 0.43272567 -0.16551648 0.25618067
0.53627044 0.11377211 0.26123828 0.2650743 0.4975261 -0.17693782 0.25955847 0.053154398
00000000: 47d1 bc3d 9833 b43e 420e b5bd 24e7 5dbe
00000010: 5a2e 18be c409 3fbe 735c 3ebe d29d d8bc
00000020: c75d a33c abb3 e3bb 8efc 3b3d 6bb7 83bd
00000030: e115 793e 43d3 5f3e 0893 b43e c228 c63e
00000040: d440 ac3d ed98 f6bc 0f69 1d3e 24c5 b43e
00000050: de95 1fbd fd3b dc3d 37cd bd3e 2f92 1d3d
00000060: 7951 44be 807a aabe 636a 92be 3857 c83d
00000070: 395f 0b3e 5198 b8bd b4d2 8fbd 0055 843b
00000080: f945 91bd 9dc7 3e3d fe17 6abe 940e cfbd
00000090: 0432 c4ba 388e dd3e 277d 29be 1d2a 833e
000000a0: 0549 093f 5a01 e93d 06c1 853e d2b7 873e
000000b0: bebb fe3e 302f 35be d9e4 843e 6db8 593d

lstm.weight_ih_l1 f4 [48, 12]
0.14669646 -0.15890601 -0.16359386 -0.15170264 -0.43064782 0.15949567 -0.36106303 -0.08539932
0.30291528 -0.028637843 0.16149716 0.15106398 0.0104234535 0.16946834 0.22241704 -0.19767746
-0.011514011 0.11500262 -0.22506486 0.14852332 -0.034763627 0.2427382 0.2419026 0.1431369
-0.1113842 -0.08941287 -0.11549092 -0.2700306 -0.015028729 -0.24249093 -0.0108570345 0.061720412
-0.37482718 -0.09829468 0.090428874 0.20875144 0.10577572 -0.05817982 -0.08765473 0.21413907
-0.044891067 0.040661186 -0.22602072 -0.058510147 -0.2010995 -0.0034540028 0.13190314 -0.34223565
0.006876301 -0.4052003 0.22146215 0.010780958 0.4156175 -0.45431492 -0.035755396 -0.2862333
0.3424 -0.012401869 0.033894837 -0.35150602 -0.1011464 0.25622538 -0.19743954 0.3038378
0.253791 0.082319826 -0.10374236 0.059570387 0.008080906 -0.012274007 -0.008049984 -0.13112123
0.14764456 -0.28422043 0.08195553 0.24482246 -0.4885281 -0.18922392 -0.39704227 0.14522998
0.114245735 -0.05858643 0.041979335 0.045758028 -0.33080715 0.0026972743 0.037860204 0.034825217
0.08236938 -0.15717642 0.13991746 -0.09407536 -0.08903267 0.08579812 -0.15411338 -0.07068212
0.15673578 0.07749397 0.21787845 0.04383919 0.27477226 0.07586078 -0.39842504 0.045593742
0.04862687 0.105974965 0.03355823 -0.11704456 -0.30491748 0.1467255 -0.07324997 0.32707748
-0.37513095 -0.22775376 0.2891749 -0.034530856 -0.21536128 0.04914765 -0.026837181 -0.109894656
-0.11387769 -0.07437244 -0.25831145 0.11246921 -0.2440037 -0.366168 -0.094032474 -0.14607164
0.21490234 -0.18854971 -0.0026277825 -0.3313082 -0.025404867 -0.27967665 -0.099978834 0.10602912
-0.108733 -0.08894395 0.2649742 -0.011937069 -0.13027006 0.2071768 0.20497784 0.21890503
-0.109056935 -0.011849228 -0.11321958 -0.18419345 -0.21858414 0.09006777 -0.41799948 -0.07465171
-0.03990113 -0.21049766 0.20827754 -0.0074694073 0.12585612 -0.079174265 -0.2705949 0.0015382357
0.15396622 0.3602372 0.09515549 0.17245421 0.13199149 0.05832485 -0.17320111 -0.33311182
0.01824331 -0.29689145 -0.3767953 0.33732423 -0.17494811 -0.022161392 -0.08380954 -0.4257859
-0.0056138993 0.2758456 -0.38789824 -0.23939475 0.17717564 -0.1560748 -0.1783683 -0.10994006
0.116080776 -0.26337475 0.112011425 0.046323955 -0.2932771 0.25298765 -0.32178876 -0.3249096
0.10419006 -0.18556577 -0.31224337 0.040494125 -0.12725425 -0.2283367 0.1916434 -0.038037267
0.44659606 -0.09768243 -0.009602875 -0.23684175 -0.3275854 0.05829372 0.15669002 0.3572441
0.24084064 -0.060367614 0.11217429 -0.12900503 -0.1805672 0.21989065 0.15466417 -0.32385525
-0.20638114 0.0722178 0.04321612 0.10428451 0.1381607 -0.005374197 -0.2217476 0.038737472
0.25489533 0.35384658 -0.2432977 -0.39877665 0.015421983 0.47444528 0.2480536 0.25015992
0.029774642 -0.230858 0.1460119 0.09725497 -0.31894502 0.3388548 0.008077196 0.07168136
-0.28801346 0.18541014 0.16832651 -0.0869163 0.0689982 -0.020578407 -0.451432 -0.3009684
0.12783128 0.27232826 0.058332574 -0.036114942 -0.4364091 -0.32813245 -0.19262362 0.2558054
00000000: 9937 163e 42b8 22be 2685 27be f057 1bbe
00000010: df7d dcbe d552 233e 41dd b8be d7e5 aebd
00000020: b617 9b3e e999 eabc 835f 253e 84b0 1a3e
00000030: 22c7 2a3c 1c89 2d3e 4bc1 633e f66b 4abe
00000040: 43a5 3cbc 7e86 eb3d 6777 66be 7f16 183e
00000050: 4e64 0ebd 5d90 783e 51b5 773e 7b92 123e
00000060: 661d e4bd 181e b7bd 8186 ecbd 7341 8abe
00000070: 0f3b 76bc 8b4f 78be b4e1 31bc 8bce 7c3d
00000080: 59e9 bfbe b94e c9bd c632 b93d f0c2 553e
00000090: f1a0 d83d f74d 6ebd 5384 b3bd 4647 5b3e
000000a0: b2df 37bd 588c 263d fa71 67be 56a8 6fbd
000000b0: 07ed 4dbe 8d5c 62bb 9e11 073e 8339 afbe
000000c0: 9852 e13b 6a76 cfbe f9c6 623e 9ea2 303c
000000d0: d1cb d43e f79b e8be 4074 12bd 2c8d 92be
000000e0: 0e4f af3e 3531 4bbc 50d5 0a3d 99f8 b3be
000000f0: d825 cfbd f92f 833e 972d 4abe a190 9b3e
00000100: e5f0 813e 4c97 a83d e076 d4bd 1400 743d
00000110: c765 043c eb18 49bc 15e4 03bc a544 06be
00000120: 2330 173e 5785 91be 4dd8 a73d bdb2 7a3e
00000130: 5b20 fabe eac3 41be 2049 cbbe 2bb7 143e
00000140: abf9 e93d 53f8 6fbd 86f2 2b3d c56c 3b3d
00000150: 8e5f a9be c1c4 303b 4d13 1b3d e3a4 0e3d
00000160: 47b1 a83d dbf2 20be 8646 0f3e 95aa c0bd
00000170: c356 b6bd edb6 af3d e6cf 1dbe cac1 90bd
00000180: 587f 203e 29b5 9e3d 871b 5f3e b990 333d
00000190: f3ae 8c3e e65c 9b3d 5efe cbbe 81c0 3a3d
000001a0: f82c 473d 6709 d93d 5b74 093d 0fb5 efbd
000001b0: 251e 9cbe 363f 163e 1504 96bd b376 a73e
000001c0: 2a11 c0be 4838 69be bc0e 943e 3a70 0dbd
000001d0: ab87 5cbe 0c4f 493d a6d9 dbbc 7310 e1bd
000001e0: b538 e9bd 9450 98bd 6641 84be 4256 e63d
000001f0: 1bdc 79be 5f7a bbbe 1994 c0bd ce93 15be
00000200: 5c0f 5c3e 2d13 41be e036 2cbb 3aa1 a9be
00000210: de1d d0bc c731 8fbe b4c1 ccbd cc25 d93d
00000220: 68af debd 3f28 b6bd b3aa 873e b293 43bc
00000230: 8465 05be 2826 543e b6e5 513e a428 603e
00000240: 3e59 dfbd 4423 42bc abdf e7bd 359d 3cbe
00000250: 85d4 5fbe 7375 b83d 0704 d6be ffe2 98bd
00000260: 5e6f 23bd b38c 57be b546 553e eec1 f4bb
00000270: 6de0 003e 1e26 a2bd 6a8b 8abe a09e c93a
00000280: 52a9 1d3e 0371 b83e e2e0 c23d d697 303e
00000290: c728 073e 0ae6 6e3d a25b 31be a28d aabe
000002a0: fe72 953c 2802 98be 50eb c0be c3b5 ac3e
000002b0: 9925 33be cf8b b5bc 56a4 abbd 9c00 dabe
000002c0: cdf4 b7bb a23b 8d3e 999a c6be e623 75be
000002d0: 886d 353e 13d2 1fbe 2ea6 36be 4128 e1bd
000002e0: c2bb ed3d 0ed9 86be 3f66 e53d 30be 3d3d
000002f0: 6b28 96be 9987 813e 7fc1 a4be 8d5a a6be
00000300: 9961 d53d f404 3ebe 5dde 9fbe 2bdd 253d
00000310: f04e 02be 19d1 69be 2b3e 443e f7cc 1bbd
00000320: 3da8 e43e ba0d c8bd 6155 1dbc a586 72be
00000330: 46b9 a7be 65c5 6e3d 5973 203e b3e8 b63e
00000340: ee9e 763e 0844 77bd a2bb e53d e519 04be
00000350: 9ce6 38be 042b 613e 4960 1e3e 5bd0 a5be
00000360: 9455 53be ede6 933d 6303 313d 1e93 d53d
00000370: 007a 0d3e 081a b0bb ce11 63be 2fab 1e3d
00000380: a481 823e 612b b53e 0823 79be 742c ccbe
00000390: 7cac 7c3c 7eea f23e c301 7e3e f614 803e
000003a0: f3e9 f33c 0a66 6cbe 2584 153e 9d2d c73d
000003b0: c34c a3be 607e ad3e 3756 043c adcd 923d
000003c0: 8076 93be 28dc 3d3e c95d 2c3e 2c01 b2bd
000003d0: ee4e 8d3d 0c94 a8bc 1822 e7be 8818 9abe
000003e0: 34e6 023e 9c6e 8b3e 23ee 6e3d 43ed 13bd
000003f0: 0371 dfbe fa00 a8be 203f 45be edf8 823e

lstm.weight_hh_l1 f4 [48, 12]
-0.18898587 -0.060511924 -0.42929986 0.26566553 -0.43118262 -0.30694395 -0.12298586 0.16987525
0.113256216 -0.42395416 -0.14366902 0.08721189 0.04208808 0.20724656 -0.13851467 -0.015838785
-0.035256635 -0.12870443 -0.00493453 -0.054466233 0.24060099 0.20086028 -0.08091317 -0.15056245
-0.09670203 0.28052738 -0.18136762 0.2228944 -0.04677936 0.27261898 0.069700904 -0.14545439
-0.0012110956 0.043773424 -0.32059792 -0.31360334 0.27213788 -0.032854024 0.27924633 -0.100668654
0.14578056 0.029634915 -0.14217184 0.15741195 0.23306401 -0.13206135 0.053929213 -0.16781497
-0.20442037 0.26906163 -0.09512243 -0.16921455 -0.17659323 -0.12991408 -0.08965433 -0.12552392
-0.123655654 0.13306817 -0.2145143 0.119600646 -0.11683713 -0.07714707 -0.12832674 0.15386006
-0.18220173 0.017496377 0.12977 -0.12878163 0.007486773 0.17356215 0.12949741 0.24115674
0.021017376 -0.0007678789 -0.19765334 -0.20899369 -0.11561814 -0.11276382 0.30651236 -0.16324121
-0.10601774 -0.06525486 0.05236279 0.17551342 0.1902226 -0.043140385 0.2831511 -0.33318192
-0.031364992 0.2671651 0.24409373 0.14945547 0.082150914 0.37461194 0.03889936 0.23234965
0.118907735 -0.0879508 0.22761646 -0.09799753 -0.11261741 0.2579653 0.11642873 -0.2170141
-0.20299494 -0.041444495 0.2864216 -0.33775765 -0.20404668 -0.0772169 0.1844132 0.20297495
-0.080708295 -0.105877824 -0.050734498 -0.1877088 -0.2537673 0.11484685 -0.36783627 -0.23092623
-0.22483118 0.103574134 0.3529185 -0.026962705 0.43991077 -0.03238918 0.51807946 -0.34067264
-0.06771962 -0.08902588 -0.34929672 -0.32452127 0.34627113 0.062311377 0.2071679 -0.04127872
0.060443476 0.27453142 0.26229197 -0.025828652 0.16000433 0.34003636 -0.103098646 -0.12282939
-0.023133414 0.014759125 -0.36359 -0.19040483 -0.0038295633 -0.13315526 0.119897515 -0.14205708
0.25991145 -0.23949765 -0.16614537 0.016260209 -0.035674512 0.16503437 -0.15406229 -0.02280964
0.14042544 -0.030427137 0.07622168 0.052343085 0.16272204 0.18253887 0.116673246 -0.11524064
-0.29244906 -0.051082063 0.37932113 -0.049382377 0.06973458 0.10907188 0.3001794 -0.2876469
-0.06586103 0.24657248 -0.39212763 -0.12804605 0.07620881 -0.06275572 -0.057844337 -0.2058639
0.32066497 0.05356051 0.08455121 -0.21465604 -0.09922873 0.34698546 -0.40734115 -0.37880978
-0.37338883 -0.10540748 -0.23313983 -0.13984257 -0.059881017 0.05829579 -0.22688681 -0.3161884
-0.19081533 0.20322797 0.05828449 0.26003382 -0.029151933 0.13202257 0.3539953 0.091357164
-0.1305073 0.041510332 -0.026994478 -0.1142866 -0.039091438 0.34145477 0.14605917 0.19311982
-0.1917327 0.3013922 -0.27565938 -0.34066343 0.3852008 -0.17184025 0.27036458 -0.1819119
0.14570566 -0.11382481 -0.05008096 -0.2621243 -0.116872795 -0.12540548 0.105311476 -0.49892142
-0.27414024 0.19708498 0.39768058 -0.028787702 0.48368824 0.4456789 0.46228305 0.13584235
0.042060137 -0.097833805 0.072900884 -0.105627924 0.38613102 -0.056163047 0.1947985 -0.30011547
-0.13216169 0.34169915 0.07230488 -0.043590054 -0.3821402 -0.10031361 -0.004571548 0.14539514
00000000: 8385 41be 5adb 77bd 31cd dbbe 5005 883e
00000010: f8c3 dcbe c227 9dbe 03e0 fbbd c7f3 2d3e
00000020: e0f2 e73d 8510 d9be f91d 13be 269c b23d
00000030: 8d64 2c3d 7138 543e cad6 0dbe 57c0 81bc
00000040: 4369 10bd 18cb 03be d6b1 a1bb fc17 5fbd
00000050: 1b60 763e 51ae 4d3e ceb5 a5bd 0b2d 1abe
00000060: b70b c6bd 49a1 8f3e 6fb8 39be 6e3e 643e
00000070: b79b 3fbd b794 8b3e 59bf 8e3d fff1 14be
00000080: a0bd 9eba c34b 333d 6925 a4be 9e90 a0be
00000090: a855 8b3e f191 06bd 60f9 8e3e 5e2b cebd
000000a0: 8047 153e ecc4 f23c 7f95 11be 9930 213e
000000b0: 55a8 6e3e 173b 07be e1e4 5c3d b0d7 2bbe
000000c0: 9353 51be 72c2 893e 8ccf c2bd 9446 2dbe
000000d0: dbd4 34be 3208 05be b09c b7bd 5889 00be
000000e0: 2d3f fdbd 0643 083e a3a9 5bbe 2ff1 f43d
000000f0: 4e48 efbd 48ff 9dbd 1668 03be 7e8d 1d3e
00000100: 1793 3abe 9054 8f3c 6de2 043e 55df 03be
00000110: 9b53 f53b 47ba 313e f89a 043e cbf1 763e
00000120: a22c ac3c 7b4b 49ba a365 4abe 7102 56be
00000130: 34c9 ecbd b8f0 e6bd 30ef 9c3e b428 27be
00000140: d41f d9bd 57a4 85bd 5d7a 563d cab9 333e
00000150: b7c9 423e f9b3 30bd 2ef9 903e d296 aabe
00000160: 9478 00bd ddc9 883e b5f3 793e db0a 193e
00000170: bd3e a83d 23cd bf3e ef54 1f3d 11ed 6d3e
00000180: e685 f33d 8d1f b4bd 4a14 693e eeb2 c8bd
00000190: f5a3 e6bd 0714 843e 3072 ee3d f238 5ebe
000001a0: e8dd 4fbe b4c1 29bd daa5 923e 92ee acbe
000001b0: 9df1 50be e523 9ebd d0d6 3c3e aad8 4f3e
000001c0: 644a a5bd 79d6 d8bd face 4fbd bc36 40be
000001d0: caed 81be d334 eb3d 0955 bcbe ed77 6cbe
000001e0: 253a 66be ad1e d43d bcb1 b43e e4e0 dcbc
000001f0: fc3b e13e 84aa 04bd dba0 043f a56c aebe
00000200: 96b0 8abd 3353 b6bd 05d7 b2be a727 a6be
00000210: 734a b13e 373a 7f3d d223 543e e013 29bd
00000220: 9493 773d 628f 8c3e 224b 863e 9c96 d3bc
00000230: 2dd8 233e 3f19 ae3e 6225 d3bd fa8d fbbd
00000240: 4982 bdbc 42d0 713c 7828 babe 7cf9 42be
00000250: 69f9 7abb da59 08be d48c f53d 6977 11be
00000260: 1d13 853e df3e 75be 0322 2abe 2134 853c
00000270: 701f 12bd c5fe 283e 81c2 1dbe 48db babc
00000280: b0cb 0f3e 5542 f9bc 1d1a 9c3d b465 563d
00000290: 9ba0 263e 78eb 3a3e 62f2 ee3d 4903 ecbd
000002a0: e2bb 95be 6d3b 51bd 6136 c23e 2d45 4abd
000002b0: 01d1 8e3d 1461 df3d 1db1 993e 7446 93be
000002c0: 26e2 86bd 7f7d 7c3e f4c4 c8be 811e 03be
000002d0: 5d13 9c3d 1286 80bd 2fee 6cbd fccd 52be
000002e0: 332e a43e 4462 5b3d 2f29 ad3d cbce 5bbe
000002f0: 6f38 cbbd 14a8 b13e 058f d0be 5bf3 c1be
00000300: d22c bfbe e0df d7bd 35bc 6ebe e432 0fbe
00000310: cc45 75bd 91c7 6e3d 0455 68be 72e3 a1be
00000320: 1865 43be fe1a 503e b8bb 6e3d 2723 853e
00000330: 09d0 eebc ed30 073e df3e b53e 7719 bb3d
00000340: b5a3 05be bd06 2a3d 8623 ddbc 180f eabd
00000350: 581e 20bd 29d3 ae3e 8990 153e 34c1 453e
00000360: 9455 44be 1450 9a3e 3a23 8dbe 706b aebe
00000370: 0a39 c53e e4f6 2fbe 3a6d 8a3e 1d47 3abe
00000380: dd33 153e fb1c e9bd b121 4dbd 2835 86be
00000390: 015b efbd 4b6a 00be 8bad d73d a172 ffbe
000003a0: 1c5c 8cbe a5d0 493e ca9c cb3e 30d4 ebbc
000003b0: fca5 f73e 0630 e43e 5db0 ec3e 421a 0b3e
000003c0: 4047 2c3d 175d c8bd 0f4d 953d 7453 d8bd
000003d0: f7b2 c53e 390b 66bd 4279 473e bca8 99be
000003e0: 6555 07be 31f3 ae3e 9514 943d 7c8b 32bd
000003f0: e1a7 c3be 3971 cdbd edcc 95bb 77e2 143e

lstm.bias_ih_l1 f4 [48]
0.24400382 -0.21921016 0.14143638 0.23545305 -0.16677538 0.20293616 0.035097245 0.29901835
-0.031125076 -0.11867321 0.043451864 -0.020132804 0.11165981 0.24391672 -0.13130516 0.21225166
-0.10973625 -0.21756987 0.19109708 0.17883192 0.22586977 -0.16324554 -0.014865238 0.1771794
0.17486069 -0.14553812 0.18850906 -0.27100632 -0.2668922 0.193825 0.22247708 0.13498923
0.0371822 0.24184078 -0.085773565 -0.12958634 0.21993056 0.27632448 0.18913274 -0.16223185
0.30506048 0.086221896 0.19898827 0.09655217 0.057377335 0.15053347 -0.23805286 0.36301938
00000000: 23dc 793e a178 60be b3d4 103e 9b1a 713e
00000010: 2ac7 2abe 7fce 4f3e 21c2 0f3d ef18 993e
00000020: 04fa febc f10a f3bd 95fa 313d 8ded a4bc
00000030: e6ad e43d 4ec5 793e dc74 06be 8058 593e
00000040: 66bd e0bd a3ca 5ebe f4ae 433e b71f 373e
00000050: 684a 673e d729 27be 548d 73bc 846e 353e
00000060: ae0e 333e f207 15be 8508 413e 57c1 8abe
00000070: 18a6 88be 107a 463e 08d1 633e 9e3a 0a3e
00000080: 5d4c 183d 1ca5 773e 0daa afbd 48b2 04be
00000090: 7a35 613e 677a 8d3e 03ac 413e 1b20 26be
000000a0: e330 9c3e 1b95 b03d 95c3 4b3e 25bd c53d
000000b0: 7f04 6b3d 7225 1a3e 21c4 73be addd b93e

lstm.bias_hh_l1 f4 [48]
-0.11799021 -0.18921976 -0.0006842637 -0.16524355 0.012908822 0.13777211 -0.079617664 0.31826693
0.19546618 0.12469655 0.12290677 0.31046364 -0.14411466 0.06397826 0.028852617 0.19243206
-0.099505916 0.14435089 0.12437713 0.23643447 0.2839361 0.04313246 -0.0017510366 0.1962926
-0.139289 0.21203524 0.104341485 0.04203015 0.17881829 -0.009318052 0.17677702 0.13655505
0.20338501 -0.26572296 0.10681776 0.121241525 -0.2522524 0.10559455 0.09241189 0.015439796
-0.11566141 0.2491656 -0.14575268 -0.11723536 0.22165313 -0.04540959 0.08895721 -0.021033624
00000000: daa4 f1bd d3c2 41be 2960 33ba 9b35 29be
00000010: 867f 533c 2214 0d3e 960e a3bd e2f3 a23e
00000020: 4928 483e e860 ff3d 8bb6 fb3d 17f5 9e3e
00000030: cb92 13be 0907 833d 535c ec3c e90c 453e
00000040: c2c9 cbbd b8d0 133e 70b9 fe3d e11b 723e
00000050: 1360 913e aaab 303d 0a83 e5ba ed00 493e
00000060: c7a1 0ebe c41f 593e fdb0 d53d ce27 2c3d
00000070: 241c 373e beaa 18bc 0905 353e 16d5 0b3e
00000080: 2944 503e d70c 88be 45c3 da3d 7a4d f83d
00000090: 3a27 81be f541 d83d 7242 bd3d 33f7 7c3c
000000a0: e4df ecbd 4425 7f3e 3140 15be 1819 f0bd
000000b0: 0af9 623e 68ff 39bd 332f b63d b54e acbc

linear.weight f4 [1, 12]
0.07644393 -0.17716101 -0.1997339 0.028444521 0.28000113 -0.2326614 -0.1492695 0.22375005
-0.2262068 -0.2513951 0.019827235 0.21426408
00000000: a38e 9c3d b269 35be 0b87 4cbe 7c04 e93c
00000010: 4f5c 8f3e ca3e 6ebe 1bda 18be bc1e 653e
00000020: c1a2 67be dcb6 80be ba6c a23c 0b68 5b3e
